proj5/proj5_code/trained_SimpleNet_final.pt (torch, 230655 bytes, 8 tensors)

conv_layers.0.weight f4 [10, 1, 5, 5]
000000 75 4d 3c 3e 58 91 10 be a4 7c 0c 3e 1a b0 93 bb
       0.18388923 -0.14117944 0.13719422 -0.004507077
000010 d8 63 e0 bd dd c5 39 be 7a f4 1f 3e b5 71 06 be
       -0.10956544 -0.18141885 0.15620604 -0.13129313
000020 16 4d b4 3d e1 35 25 3e d6 bb 45 3e 08 dd fd 3d
       0.088037655 0.16133834 0.19309935 0.12395674
000030 57 ba 11 3e e1 ce 75 bd fc ec 99 bd e9 4f f4 3d
       0.1423124 -0.06001175 -0.07515904 0.11929304
000040 b8 9a 47 3e f5 90 39 3e 29 58 0a be 37 61 2d 3e
       0.19492614 0.18121703 -0.13510193 0.16931616
000050 a9 1c 2d be e5 2d e8 3c f9 e9 9a bd 81 84 1b 3e
       -0.16905464 0.028342197 -0.07564158 0.15187265
000060 2e 50 29 3e 48 a0 48 be 37 a8 17 bd ac c3 37 bd
       0.16534492 -0.19592392 -0.037025657 -0.04486434
000070 a9 81 55 3e c3 27 ba 3b 40 85 4d be a7 7c 53 be
       0.20850243 0.0056810095 -0.20070362 -0.2065302
000080 87 86 10 be a1 eb 17 be da 97 1b 3e 83 f1 06 bd
       -0.14113818 -0.14835979 0.15194646 -0.032945167
000090 59 67 c7 3c e3 11 3c be 58 09 11 be aa cb 17 3d
       0.024341272 -0.18366198 -0.1416372 0.037059464
0000a0 35 83 3c 3e b2 5e 1a 3e d6 04 ff 3d 78 fc f1 3d
       0.18409427 0.15075186 0.12452094 0.11815733
0000b0 1d 8f 91 3d 54 cd 53 3c e3 62 48 3e 78 f9 08 3e
       0.07107375 0.012927372 0.19568972 0.13376415
0000c0 5c 3a aa bb db 33 48 3e 84 c8 a3 3d 50 00 1b 3e
       -0.0051949453 0.19551031 0.0799723 0.15136838
0000d0 10 6e 0d 3e 56 15 91 ba 8b 6d 2f 3d 30 82 48 be
       0.13811517 -0.0011068981 0.042829078 -0.19580913
0000e0 59 c9 86 3d a3 e7 11 3d f6 80 5c bd 7a 3f 04 be
       0.06581373 0.035621297 -0.053833924 -0.1291484
0000f0 f1 2f 38 3d 66 5a d3 bd 8d e8 aa 3b 5f 2f d3 3d
       0.044967595 -0.103199765 0.0052157105 0.1031177
000100 f9 85 21 be d3 29 58 be 5c a2 ea bd c4 37 1c 3e
       -0.15773763 -0.21109705 -0.11456749 0.15255648
000110 e1 fc 25 3e 07 42 07 ba d3 ce 82 3d 27 92 9e bd
       0.16209747 -0.000515968 0.06387105 -0.0774272
000120 35 b1 66 be 74 9e 5d be 37 be 58 3e f7 0d 8c bc
       -0.22528537 -0.21642476 0.21166311 -0.017096503
000130 69 25 86 bd 93 91 1b be da 7c fe 3c 00 ed 29 be
       -0.06550104 -0.15192251 0.031065393 -0.16594315
000140 2d a7 1a be 47 d8 2f 3e c5 e4 bf bd f7 85 5e bc
       -0.15102835 0.17172347 -0.09369806 -0.013581744
000150 2c 80 21 3e 79 7a e2 bd f4 ca 3f be 5b 02 32 3e
       0.1577155 -0.11058516 -0.18729764 0.17383711
000160 ff 35 46 3e 99 ac 40 3e c6 5d 16 bd cc 45 42 be
       0.19356535 0.18815841 -0.036710523 -0.18971938
000170 89 79 2d 3e 7f 45 85 bd d9 61 9b 3d 99 37 b7 bd
       0.16940893 -0.06507396 0.07587022 -0.08946151
000180 b7 6e a8 3d 69 af 0e be 3c 0c 50 3e 67 e9 21 be
       0.08224242 -0.13934101 0.20317167 -0.15811692
000190 e8 23 87 3d b5 b8 2f be 25 ed 1c be 00 7c ed 3c
       0.065986454 -0.17160304 -0.15324838 0.028989792
0001a0 04 32 58 bd 0e 16 1c 3d 41 1b b3 3c f5 67 0e 3e
       -0.052782074 0.03810697 0.021863582 0.13906844
0001b0 28 a0 d6 bc 1e 52 4d 3e 22 68 25 3d 56 78 e8 bd
       -0.026199415 0.20050856 0.040382512 -0.11351077
0001c0 e1 18 47 ba d3 4e 34 3e f4 e8 99 3d c0 05 0c be
       -0.0007594955 0.17608194 0.075151354 -0.13674068
0001d0 a6 c5 0b 3e a4 d3 ff bd ad 59 0f be 3c 93 27 be
       0.13649616 -0.12491539 -0.13999052 -0.16364759
0001e0 ee 5b 11 bd c9 07 0a 3e cc 40 49 3e a6 1b c0 bd
       -0.03548806 0.13479532 0.19653624 -0.093802735
0001f0 48 86 54 bd 10 6f d8 bd 30 a4 d1 bd eb 58 af ba
       -0.051885873 -0.105680585 -0.102363944 -0.001337794
000200 9f 9c 8c bd 5f 72 33 3d 7f 26 ad 3c dc 81 08 bd
       -0.068658106 0.043810245 0.02113652 -0.03332697
000210 f3 1f 37 3e 17 66 0e 3e 6f 54 27 3e 8b 39 bf bd
       0.17883281 0.13906132 0.16340803 -0.09337147
000220 dc 7f bf 3d 3e db a8 bd d3 6a 28 be 6a 33 2e be
       0.09350559 -0.08244942 -0.16447 -0.170118
000230 36 a0 15 bd a6 22 6a 3e 23 fd 11 be c9 2c 07 be
       -0.036529742 0.2286478 -0.1425672 -0.13200678
000240 a8 ee a4 3b a8 b3 14 be e8 18 0b bd 45 76 12 be
       0.005033333 -0.14521658 -0.0339593 -0.14302929
000250 67 f3 34 3e 26 06 82 bd 87 7f 19 be b1 e2 60 3e
       0.17670976 -0.06348829 -0.14990054 0.21961476
000260 5f 9a 11 3e 35 30 e2 bd bb 4f 45 bd 5d de 1b be
       0.14219044 -0.11044351 -0.04817174 -0.15221544
000270 14 72 44 3e f0 b0 25 3c 2f 56 bc 3d 9a 50 17 be
       0.19184142 0.010112986 0.09196126 -0.14776841
000280 c1 2c 79 3d 1e dc 0a bd 10 d9 0c bd 9f 6a 43 3e
       0.060833696 -0.033901326 -0.034386694 0.19083641
000290 89 2b 97 bc 26 22 89 3d cd 45 f4 3d f4 08 db 3d
       -0.018453376 0.066959664 0.11927376 0.10695067
0002a0 63 8e 93 3d a6 6e 1c be c0 00 d1 3c ff 12 2c 3c
       0.072048925 -0.15276584 0.025513053 0.010502576
0002b0 a4 ac 0f 3e 85 6f 61 3e f8 06 0b be 49 5f 9e 3b
       0.14030701 0.22015198 -0.13576877 0.004833136
0002c0 77 e7 09 3e 73 7e 3b be f4 98 6e 3d 27 86 48 bc
       0.13467203 -0.18309955 0.058251336 -0.012239016
0002d0 e9 41 1a bb d5 ed c8 3b f8 75 96 3d 2d 43 88 3d
       -0.002353782 0.0061318674 0.073467195 0.06653438
0002e0 15 9a f7 bd 9d 10 cb 3d 34 c7 30 3e ed 1a 04 be
       -0.12089936 0.09915278 0.1726349 -0.12900896
0002f0 f5 3a b5 bd 71 b4 52 be de 60 78 3e 13 f5 b0 3c
       -0.08849136 -0.20576645 0.24255702 0.021601235
000300 fc 47 e5 bd b9 4a 04 be e4 1b 0e be e3 a7 93 3c
       -0.111953706 -0.1291913 -0.13877827 0.01802439
000310 59 dd c1 3d 08 25 68 3d 72 1e f8 3d fb e9 ff bd
       0.09466047 0.05667594 0.12115182 -0.124958
000320 ea ae 31 3e 05 7f 53 3e 08 4b 1e 3e 79 a9 0e 3e
       0.1735188 0.20653923 0.1545831 0.13931836
000330 7c e9 e7 bc cb 6d 9d 3d 7c 0f a2 bd 3b 41 07 3d
       -0.028309576 0.07686957 -0.0791311 0.033021193
000340 56 ac 7d 3d 25 b9 ef bd b9 7d 5a 3e 34 14 1d 3e
       0.06193193 -0.117052354 0.21337022 0.15339738
000350 ce c9 34 3e 05 dd 28 be 14 33 22 be 10 61 12 3e
       0.17655107 -0.16490562 -0.15839797 0.14294839
000360 97 f5 ab 3d b9 ad 6b bc fc 32 22 3e 2a 61 52 be
       0.08396452 -0.01438468 0.15839761 -0.20544878
000370 2f 0f f9 3d f9 43 80 3d 1f 5a b4 3b 63 92 45 3e
       0.12161099 0.06262965 0.0055039073 0.19294123
000380 8e 0d 59 be 8a c3 71 bd 03 6c bd 3d 6a e5 49 bd
       -0.21196577 -0.05902437 0.09249117 -0.049291052
000390 2a d4 69 3c 43 8f 01 3e 4c 66 5b 3d 81 0a 2e 3e
       0.014271775 0.12652306 0.053564355 0.16996194
0003a0 10 ba 01 3d db e1 ca bd a8 a0 33 be 7b 6c 61 3d
       0.031671584 -0.0990636 -0.17541754 0.055035096
0003b0 da 41 fc 3d 86 4c 3d be 52 34 c3 3c 75 9a 41 be
       0.12317248 -0.18486223 0.02382866 -0.18906577
0003c0 77 87 0e 3e 56 28 fd 3d 81 67 54 be 2b 21 0f 3d
       0.13918863 0.12361209 -0.20742609 0.03494374
0003d0 6a 39 10 3d 3c e2 d5 3d c0 e8 b8 bd 2e 88 3c be
       0.035211004 0.104435414 -0.090287685 -0.18411323
0003e0 61 b6 0c be 02 f1 4c 3e
       -0.13741447 0.20013812

conv_layers.0.bias f4 [10]
000000 f0 fd 30 3e d5 e8 a1 bd 94 94 35 3e 5f fa 16 3e
       0.1728437 -0.07905737 0.1773246 0.14743946
000010 4a ef 65 ba 8c 1e 57 3e e1 78 30 be 92 33 05 3d
       -0.00087713136 0.21007746 -0.17233612 0.032519884
000020 8a 85 f4 3d 6c e1 87 3c
       0.11939533 0.016586982

conv_layers.3.weight f4 [20, 10, 5, 5]
000000 3f 88 92 3c c1 f5 29 3d 00 a9 78 bd 17 3d 4f bd
       0.017887233 0.041494135 -0.060708046 -0.05059537
000010 cb 28 2b bd 99 c6 85 3c 08 40 6d 3d d8 5f 47 bd
       -0.04178695 0.01633005 0.057922393 -0.048675388
000020 90 55 97 bd 41 69 0c 3d f0 d7 54 3d b7 2a d7 bc
       -0.073893666 0.034280065 0.051963747 -0.026265485
000030 a6 3a 27 bd 5a 1a bd 3c 9e ed d8 bb ec 7e 17 bd
       -0.040827416 0.023083854 -0.006620123 -0.036986277
000040 31 be 63 bc ff 8f 54 bd 84 f9 34 3d 28 39 dc bc
       -0.013900326 -0.051895138 0.04418327 -0.026882723
000050 9e 10 76 bd 3a 87 7d bd 07 bc 1e bc 40 53 8b bd
       -0.06007444 -0.06189654 -0.009688384 -0.06802988
000060 1b 73 36 bb e7 5a b0 3a e2 ea d2 bc e4 3a 00 3c
       -0.0027839604 0.0013454825 -0.025746766 0.007826541
000070 76 02 d0 bd 80 e9 13 bd 76 97 ae 3d c8 74 5c bd
       -0.101567194 -0.036111355 0.08524983 -0.05382231
000080 35 7a c1 bd 32 52 25 3d fe 74 2c bd 82 8a 9a bc
       -0.09447137 0.04036159 -0.04210376 -0.018864874
000090 bf e7 44 bd 57 94 df bb d4 2b 9a 3d ae b4 14 bd
       -0.048072573 -0.0068231034 0.07527891 -0.036305122
0000a0 25 d3 90 bd 6b de 84 bd 4e 9e 3e 3d 3b fc 87 bd
       -0.070715226 -0.06487735 0.04653769 -0.06639906
0000b0 b6 55 90 3d ee 72 61 3c 6d 90 66 bc 4e 81 a6 bd
       0.07047598 0.0137603115 -0.01407252 -0.08130132
0000c0 cd f9 31 bd f9 42 07 be ed a3 00 3d 95 f7 0d 3d
       -0.04345112 -0.13209142 0.03140633 0.03465994
0000d0 78 d1 20 3d dc cd c0 3d 54 11 6d 3d db 1b 26 bb
       0.039262265 0.094142646 0.057877854 -0.0025346193
0000e0 f6 c2 b0 3a 38 c5 80 3d 05 f0 a2 3d 0e 22 b6 3d
       0.0013485837 0.062876165 0.07955936 0.08893214
0000f0 74 e6 bc 3d 39 a4 11 bd f8 bc 75 39 a6 d1 6d 3d
       0.09223643 -0.035557006 0.00023435417 0.058061264
000100 06 d4 10 3d 60 8d 0a 3d 91 0f a4 3c 86 90 4c 3d
       0.03535845 0.033826232 0.020026954 0.049942516
000110 50 ec 80 3d 6b a3 57 bc 71 5e 2f 3d a6 0c af 3d
       0.06295073 -0.0131615205 0.042814676 0.085473344
000120 01 eb d4 3c 67 b0 a7 3c 48 68 d9 3d a9 95 9c bc
       0.025990965 0.020469857 0.10615593 -0.019114332
000130 ae eb e8 bb d0 59 8c 3d 25 21 1f bc d8 74 a9 3d
       -0.0071081733 0.06853068 -0.009712492 0.08274239
000140 3c 7a 6a 3d 3e 8c 64 3c b9 bf 18 bd 39 09 88 bc
       0.057245478 0.013949452 -0.037292216 -0.01660596
000150 4c 95 c8 3d b3 80 74 3d 9d fb fc bc f2 08 24 3c
       0.09794101 0.05969305 -0.030881697 0.010011898
000160 60 09 a2 bb b6 ff cc 3b 53 9f d1 bc 07 95 2b bd
       -0.0049449652 0.006256069 -0.025588667 -0.04189017
000170 33 46 31 3d 5b ca 2f 3d 50 bb b7 3d 1c 64 6f 3d
       0.043279838 0.04291759 0.08971274 0.05844508
000180 d9 65 1c 3d 50 18 d3 bc d1 84 17 bd 8c 64 d5 3b
       0.038183067 -0.025768429 -0.036991898 0.0065122303
000190 7c 95 e6 3d 83 8f 0d 3e ca 47 c5 3d 6f e5 79 3c
       0.11258981 0.13824277 0.09632833 0.015252455
0001a0 e0 3b 8b 3d 3a 22 e3 3d cd 4a c2 3d fc 6b 0d 3d
       0.067985296 0.110905126 0.09486923 0.03452681
0001b0 da 7a 83 3d 7d 47 af 3d 12 7e db 3d 88 76 92 37
       0.064199165 0.08558557 0.107174054 1.7459752e-05
0001c0 9f 46 2a bb f9 7a aa 3d e2 54 55 3d 7b 03 09 3d
       -0.0025982035 0.083242364 0.052082904 0.033450585
0001d0 d9 74 79 bc a9 82 b8 3d 20 9d 15 bd ee 96 0f 3e
       -0.015225613 0.090092964 -0.0365268 0.14022419
0001e0 33 40 d7 3d 40 d3 a5 ba 03 18 b2 3c d6 cd d4 3d
       0.10510292 -0.0012651458 0.021739965 0.103908226
0001f0 64 68 07 3d 1c 4f 1c 3d c1 31 28 bb c0 9e 9a 3d
       0.03305854 0.038161382 -0.0025664421 0.075498104
000200 d2 86 83 bc 09 7a 39 3d 7c 8a 96 bb 15 e1 8b 3b
       -0.016055498 0.045282397 -0.0045941453 0.004268775
000210 5c b1 6d bd d3 f7 ae 3d d9 c7 02 bd 87 fc 63 bd
       -0.05803047 0.085433625 -0.03192887 -0.05566075
000220 83 2d fd bc 8a b6 ad bb cd 2a e0 bc e7 b7 cb 3d
       -0.03090549 -0.0053013014 -0.027364159 0.09947186
000230 84 97 81 bc d6 2e 3d 3c 1a d7 9d 3d 4e f0 3a 3d
       -0.015819319 0.011546811 0.07707043 0.04563933
000240 52 9b bf 3d af 56 e1 3d 2f 6a d2 3c 6a 2f 87 3d
       0.09355797 0.11002862 0.025685398 0.066008404
000250 c4 a5 b2 3d 1b ec 8a 3d 95 41 63 3d 6a 94 4c 3b
       0.087230235 0.06783315 0.055482466 0.0031216391
000260 dd 72 90 3d 89 f3 94 3d 23 0f a0 3d 45 19 07 3e
       0.070531584 0.07273013 0.07815387 0.13193233
000270 98 45 53 3d 1e cb da 3c 40 59 b8 3b 66 b7 c5 3c
       0.05158004 0.026708182 0.005625874 0.024135303
000280 4b bb b2 3d ff 4b 05 3e c5 9d 74 3c 02 a7 4e 3d
       0.087271295 0.13017271 0.014930193 0.05045224
000290 8d f3 b1 3d 42 10 2a 3d 59 7e 81 3d d1 8b 92 3d
       0.08689032 0.04151941 0.06322927 0.07155574
0002a0 be ae 21 3d 53 35 64 3c 10 af a3 38 07 c9 ae bc
       0.039473288 0.013928729 7.8050536e-05 -0.021336092
0002b0 16 37 dc 3d 27 25 07 bd 4d 85 ba 3c 31 f7 38 3e
       0.10752694 -0.032994416 0.02276864 0.18063046
0002c0 73 59 ee 3d 6b d0 d1 3d 43 85 05 3e bf 3e 04 3e
       0.11638155 0.10244831 0.13039117 0.1291456
0002d0 76 1e b5 3d e8 04 21 3e f4 1e ba 3d b0 3c af 3c
       0.088437006 0.15724528 0.09087935 0.021391243
0002e0 fe 38 a9 3b 94 76 8e bb 1f 42 1e 3e bc 30 c0 3d
       0.0051642647 -0.0043476317 0.1545491 0.09384295
0002f0 3a b4 c3 3d e3 ed 38 3d d9 8c 63 3d 72 03 4b 3c
       0.0955586 0.04514874 0.055554245 0.012390958
000300 11 1f 73 3d 9e f2 bd 3d bd 8a 69 3d df 49 c4 3b
       0.0593558 0.09274791 0.057017077 0.0059902514
000310 9c 00 b7 bc 34 0d d6 3c d6 83 10 3e 0f e4 11 3e
       -0.022339158 0.026129343 0.14112791 0.14247154
000320 b7 43 2e bd e4 7b 97 3d 86 57 0a bc f8 a9 7d 3d
       -0.042545047 0.07396677 -0.008443719 0.061929673
000330 3a 40 b0 bc cd 82 09 3d ed a9 73 3d a3 f7 b2 bc
       -0.021515 0.033572007 0.059488226 -0.021846598
000340 79 d4 09 3d a6 54 68 bd 5d 36 56 3d 99 4c e7 3b
       0.033649895 -0.056721352 0.05229794 0.0070586917
000350 cb a2 71 bb d4 cf ed 3c ed 83 89 bd 4a 8a 73 bd
       -0.0036870714 0.029029764 -0.06714616 -0.059458055
000360 64 a4 1d bd 55 b9 eb 3c cd 4c 06 bd 3a cf 0d bc
       -0.038486853 0.028774897 -0.032788087 -0.008655364
000370 2c 63 94 bd 5a b1 8b bd b6 08 7c 3c 26 e3 5e 3d
       -0.07245478 -0.068209365 0.015382936 0.054415844
000380 5b 93 2a bd 25 0b 78 3e 10 62 b2 3d f3 2b b1 3d
       -0.041644435 0.24223001 0.0871011 0.08650961
000390 c9 95 9f 3d 4d c8 bb 3d d1 87 81 3d ea 74 6f 3d
       0.07792241 0.09169064 0.06324733 0.058461107
0003a0 56 e7 fd 3d df 4d 16 3e 52 f7 8f 3d a7 12 c4 3d
       0.123976395 0.14678143 0.070295945 0.0957387
0003b0 ac f3 e1 3d f9 5a 97 3d a2 14 85 3c 19 68 c4 3d
       0.11032805 0.073903985 0.01624519 0.095901676
0003c0 e3 40 97 3d 07 28 f9 ba c2 45 d4 bc 02 ae f9 3c
       0.07385423 -0.0019009121 -0.02591217 0.030478481
0003d0 e7 3a c4 3c aa ab 86 3d e3 d5 44 3d 30 a5 0b 3e
       0.023953868 0.06575711 0.04805554 0.13637233
0003e0 f4 25 e7 3d 02 b0 54 3e 6e 5d ad 3d 69 ad a3 3d
       0.11286536 0.20770267 0.08465086 0.0799206
0003f0 a6 f4 75 bb fc c3 c1 3d 9e ac af 3d 95 0f 89 3d
       -0.0037529855 0.09461209 0.08577846 0.06692425

conv_layers.3.bias f4 [20]
000000 fb e0 d3 bc 69 86 ba 3c 4a a3 c7 3d 8b 99 2f 3d
       -0.025864115 0.02276917 0.09747942 0.04287104
000010 86 38 bf 3d d1 f2 aa 3d e6 9f 81 bc c1 02 f1 3c
       0.09336953 0.08347095 -0.015823316 0.029420258
000020 49 5d 85 3b 5c 07 70 3d c3 a3 20 bd 49 9b 91 bc
       0.0040699583 0.05860077 -0.039218675 -0.017774241
000030 bd 0b 7e bd b1 08 fd 3d 0b 25 96 bc ee b8 13 bd
       -0.062022913 0.123551734 -0.01832821 -0.036065035
000040 e5 a0 59 bd 24 d3 82 bd b9 7c 48 bd e3 72 7c bd
       -0.053131957 -0.06387928 -0.04894707 -0.061633002

fc_layers.0.weight f4 [100, 500]
000000 87 49 ab bd e6 c0 2e bc 4d 7c 48 3d fe b7 b6 bc
       -0.083636336 -0.010666108 0.048946667 -0.022304531
000010 d5 ae d8 3c f7 c4 7c bd 4a f9 93 bd b2 66 02 bd
       0.026450554 -0.061711278 -0.072252825 -0.03183622
000020 af 1a 0d bd 10 37 21 3c 1e 29 32 bd a7 ee b7 bd
       -0.034449276 0.009839788 -0.043496244 -0.08981066
000030 1c 73 22 bd 8e 56 21 bd fc 96 13 bd 4b 8c 5b bd
       -0.039660558 -0.039389186 -0.03603266 -0.05360059
000040 00 62 e7 bc 0d a8 18 bd 3f e6 05 bc 07 81 47 bd
       -0.028244972 -0.03726964 -0.008172571 -0.048707034
000050 52 93 7d bb 91 3d 8e 3d 52 54 54 3d 75 30 ac 3d
       -0.0038692546 0.069453366 0.051838227 0.0840768
000060 e2 19 14 3d 30 29 89 3d 70 e4 2f 3c 96 c3 8d bc
       0.036157496 0.06697309 0.010735616 -0.017305177
000070 86 0a 7c 3c a8 4c db 3d 7e ed bd 3d b1 7f 26 bc
       0.015383368 0.107079804 0.09273814 -0.01016228
000080 a0 cb fa 3b 73 d5 90 bd f6 a8 2b bd 7c 82 07 be
       0.0076536685 -0.07071962 -0.04190918 -0.1323337
000090 31 81 4e bd 59 de 1a bd 9d f5 8e bc 47 63 74 bc
       -0.050416175 -0.037809703 -0.017451102 -0.014916248
0000a0 dc b8 a4 3d 63 90 33 3d f9 3d fe 3b a3 cb 13 bd
       0.08043072 0.04383887 0.0077588526 -0.036082875
0000b0 b6 a3 db 3c 88 4c 81 3d d9 fa 8f bc 63 f9 79 3d
       0.026811462 0.06313425 -0.017575668 0.06102885
0000c0 71 4d 8a 3d 82 3a ce 3d 22 e0 46 3d d3 a9 60 bc
       0.06753052 0.10069753 0.048553593 -0.013712364
0000d0 74 cb b0 3c 7a a5 3f 3c a7 db 22 bc 35 3f ba 3d
       0.021581389 0.0116971675 -0.0099400645 0.09094087
0000e0 4e 07 51 3d 58 4b 91 3c 1b ec 47 3d 18 41 13 3d
       0.051032357 0.017736122 0.048809152 0.03595075
0000f0 b9 9d 4d bd 85 9b 9e bd 61 93 8c bd c2 ee bd b9
       -0.050199244 -0.07744507 -0.06864048 -0.00036226778
000100 2d e7 94 3b 7a 4d 8c 3b 28 21 13 3d b2 3e 8d bb
       0.00454416 0.004281697 0.035920292 -0.0043104524
000110 15 72 d0 bc 4a 73 98 bc a8 62 ef 3c 13 b7 0c 3d
       -0.025445024 -0.018609662 0.029221848 0.03435428
000120 8a fe 91 3d 54 40 18 3d b2 0a 8c bc 38 89 f4 3b
       0.071286276 0.037170723 -0.017094944 0.007462647
000130 38 73 af bb 7a 9c df 3c f2 4b 8d bc 60 11 a9 3a
       -0.0053543113 0.027296294 -0.017248128 0.0012898855
000140 a8 18 00 3d 5f 12 bc 3c ac 92 65 3c 3f a8 c9 bc
       0.031273514 0.022957979 0.01401202 -0.024616359
000150 59 da 00 bd a5 55 0d bd 56 31 90 3c 66 2d eb 3c
       -0.031458233 -0.034505505 0.01760165 0.028708171
000160 61 97 23 3d b8 c5 c2 bb cf 9c 42 bd 42 fc 95 bb
       0.039939288 -0.00594398 -0.047512826 -0.0045771906
000170 89 ed cb 3c 98 2e 02 bd f1 66 1b 3c 47 21 55 3c
       0.024893539 -0.031782717 0.009484992 0.013008422
000180 eb 25 08 bd 53 ab dd 3c c8 2e b6 bc d1 2f a2 bb
       -0.033239286 0.027059233 -0.022239104 -0.004949548
000190 40 f5 83 bd 74 1d 8d bd b8 02 71 3d d9 fc 3b 3c
       -0.06443262 -0.06890383 0.058840483 0.011473858
0001a0 ed f6 2b bd 9b ab d7 bb e0 12 fb bc d4 71 35 3d
       -0.041983534 -0.0065817363 -0.030648649 0.044298008
0001b0 8c db ad 3d 31 df c6 3b 89 1b 5c 3b 0f 28 dc 3c
       0.08489141 0.006069087 0.0033585748 0.02687457
0001c0 4e e4 9b 3d ef bf ff 3d cd 32 1b 3e 44 a9 ea 3c
       0.07611905 0.1248778 0.15156098 0.028645165
0001d0 bc 78 6b 3d 38 70 df 3d 0c 94 59 3d ed 5b dd 3d
       0.05748819 0.10910076 0.053119704 0.10808549
0001e0 8e 0f f4 bb b0 98 88 b9 69 73 45 3d ea 6a 1b 3d
       -0.0074481433 -0.00026053702 0.048205767 0.037943758
0001f0 79 ec 81 3d 2b 00 3c 3d b3 eb 89 3c 9e d7 a4 bc
       0.06343932 0.045898598 0.016836023 -0.020122346
000200 20 cf 32 bd 0b 47 10 3c ec 6b 24 bb 71 7a fb bc
       -0.04365456 0.008806 -0.002508874 -0.030698033
000210 79 66 7b bc 11 3d 60 bd 81 aa cb bc 4c cb d6 3d
       -0.015344256 -0.054745737 -0.024861576 0.104879946
000220 41 ea a9 3c d7 e4 d5 bc 5c 1a d9 bc 4b f6 ee bc
       0.020741584 -0.026110096 -0.026501827 -0.029170176
000230 26 0f ad 3d 9d 61 ef bc dc 76 cf 3b 01 47 a9 3c
       0.08450155 -0.02922135 0.006331308 0.02066374
000240 00 72 d1 3d e0 e7 e2 bc 0e d1 ed bb 06 26 2e 3c
       0.10226822 -0.027698457 -0.0072575873 0.010629183
000250 31 5e 98 bd 73 0b 35 bd 6b f1 f2 bd 04 b9 08 bd
       -0.074398406 -0.044200372 -0.11862453 -0.03337957
000260 e9 fd 95 bc f7 9d 24 bd 64 a5 ca bc 65 31 99 bc
       -0.01830955 -0.04018971 -0.024737068 -0.018700311
000270 d7 a8 7d 3d b7 ff 32 bc 4f dd 36 bd ea 4f 71 3d
       0.061928596 -0.010925225 -0.04464465 0.058914103
000280 e9 e7 48 bd 21 14 1f bd c2 67 ab bb 60 fa 73 bd
       -0.04904929 -0.038837556 -0.0052308748 -0.059564948
000290 d2 e2 89 3d 3d 79 de bc 7d 9a 4f 3d 84 1b 81 3b
       0.06732716 -0.02715742 0.05068444 0.0039400477
0002a0 fe 23 05 3d aa 2c 11 3e a7 a0 28 3d 57 0f c5 3d
       0.032505028 0.14177194 0.041168835 0.096220665
0002b0 e8 a7 1a 3d 08 e0 f5 3d fd 8c ac 3d 75 38 cf 3c
       0.037757784 0.12005621 0.08425329 0.025295475
0002c0 50 30 8f bd 16 06 22 bc 65 a6 7d bc 6f e8 83 3d
       -0.06991637 -0.009889146 -0.015481566 0.064408176
0002d0 73 8c e1 3b ee fe 3e ba 92 bc fc 3c 87 e4 f8 3c
       0.006883198 -0.0007285912 0.030851636 0.030382408
0002e0 58 df 09 3d 23 b3 fc 3c af 31 8e bc d5 be c9 bc
       0.033660263 0.030847138 -0.017357675 -0.024627129
0002f0 53 3b b2 3c d5 22 e6 bc 30 7c 94 bd 71 67 52 bd
       0.021756804 -0.028092781 -0.072502494 -0.05136818
000300 56 00 12 bd d2 7a fc ba d6 12 38 3d 5e c5 41 3d
       -0.03564485 -0.0019262678 0.04493984 0.047307365
000310 9b 68 01 3b e4 98 61 3d f8 29 08 bc 62 c8 8b 3d
       0.0019746188 0.05507745 -0.008310787 0.06825329
000320 8d a2 ae bd 4f 07 c3 bc eb c9 d0 ba 91 84 8b bd
       -0.08527098 -0.023807196 -0.0015929317 -0.068123944
000330 06 46 ca bd 4b ae 99 bd 77 b7 43 bd 3d 5b c2 3c
       -0.09876637 -0.07503947 -0.047782388 0.023725146
000340 02 71 fe bc f0 78 ee bc ee 2c c1 bc 39 c2 75 bd
       -0.031059746 -0.029110402 -0.023580994 -0.05999968
000350 d0 f5 df ba 0b d0 c9 bd 6a 77 ec bd 62 63 6e bd
       -0.0017086808 -0.09854134 -0.11546214 -0.058200248
000360 c9 8e c0 bc 84 02 19 3d b0 b9 d3 bc e2 57 a5 bd
       -0.023505585 0.037355915 -0.025845379 -0.08073403
000370 b5 06 70 3c 02 d7 60 bd 19 1a 41 3c b1 88 0a bc
       0.014650037 -0.054892547 0.011786007 -0.008455441
000380 0f 86 0c bd ca ad a4 3d 7a db af bd eb 87 e8 bd
       -0.034307536 0.0804096 -0.08586784 -0.11354049
000390 28 14 eb bd 2f 91 93 bd 1f 6d 1d bc 60 fc ba bd
       -0.11478454 -0.07205426 -0.009608536 -0.09130168
0003a0 c3 0d c7 bc ae 14 40 3c 60 8f b9 3a 4b 16 d3 bc
       -0.024298554 0.01172368 0.0014157109 -0.025767466
0003b0 2e 17 e8 bc ed e7 1c bc 3c aa 0b 3d c0 33 2c bd
       -0.028331365 -0.00957678 0.034097895 -0.04204154
0003c0 33 69 49 3d 1d 48 b9 3d ef 0c 7a bd 31 eb a3 3d
       0.04917259 0.09046958 -0.06104749 0.080038436
0003d0 9c ed 53 3d f5 ec 0c bd cd d6 ee 3c e2 6b a4 3c
       0.051740274 -0.034405667 0.02915516 0.020070974
0003e0 cd 93 c6 3d 79 a9 07 bc 8d 80 80 3d a6 2f e6 bb
       0.096961595 -0.0082801515 0.06274519 -0.007024723
0003f0 4b 2b 29 bd d1 4e cc bb f7 e9 37 3c fa d2 44 bc
       -0.041301053 -0.0062349816 0.011225215 -0.012013191

fc_layers.0.bias f4 [100]
000000 8e 14 cb 3c b0 74 da bc d3 d5 31 bd 32 63 1b 3d
       0.024790075 -0.026666969 -0.04341681 0.037936397
000010 d8 28 1f bd 2e 21 51 bc 54 c8 35 bb f8 09 68 bd
       -0.03885731 -0.012764258 -0.0027737813 -0.056650132
000020 bb 64 62 bc 58 0f ad bc 6f cc 20 3d a2 1d 69 3d
       -0.013817961 -0.02112548 0.039257463 0.056913026
000030 1e 6a 41 3d ac eb aa 3d ba 7f 4d bd a0 e1 9b bd
       0.04722034 0.08345732 -0.050170638 -0.07611394
000040 1b 0c a4 3c cf 33 76 bc f9 8f 09 3d f6 0b 20 bd
       0.020025304 -0.015027001 0.03358457 -0.039073907
000050 c9 a9 62 bd 75 c0 5b 3d 57 01 38 3d b1 39 35 3c
       -0.0553377 0.05365034 0.044923153 0.011061118
000060 9c d7 cb bc 8f 32 a2 3a 40 88 8b bd ed 4a 35 bd
       -0.024883084 0.0012374687 -0.06813097 -0.044260908
000070 7c 5d 33 3d 1c 64 5c 3c 10 c1 43 3d ed 0f c8 bb
       0.043790326 0.013451602 0.04779154 -0.006105414
000080 53 90 22 bc 08 44 62 bd 99 d7 ef bc d5 c8 c5 bd
       -0.009922105 -0.05524066 -0.02927761 -0.09657446
000090 e7 61 08 3d 55 41 9e 3c dc 33 85 bc 61 63 db 3d
       0.033296492 0.019318262 -0.01626008 0.107123144
0000a0 98 f0 24 bd 16 e6 d9 bb ea 64 61 3d f0 34 9d bc
       -0.04026851 -0.006649743 0.05502788 -0.019190282
0000b0 c1 9e 9a bd fa 53 83 bb 04 6e a3 3d ce dc 81 3d
       -0.07549811 -0.0040078135 0.07979968 0.06340943
0000c0 cf 73 a3 bd ef 9a 03 bd 42 c6 c0 3b 6f 78 42 bd
       -0.07981073 -0.032130178 0.005883009 -0.047478136
0000d0 7e f1 22 bd 47 a8 75 bd 01 43 14 bc 32 21 f7 3c
       -0.039781086 -0.059974935 -0.009049178 0.030167196
0000e0 fc 63 b7 bb 1e 82 b8 bd f9 46 07 bd 97 fb 15 bd
       -0.005596636 -0.09009193 -0.03302667 -0.036616888
0000f0 39 e6 2b 3d 23 0c 23 3d 4d 44 cb 3c 14 27 a3 3c
       0.041967604 0.039806496 0.024812842 0.019916095
000100 15 72 c6 bc 54 42 5d bd 93 09 86 3c f7 25 b6 3c
       -0.02422432 -0.054018334 0.016361987 0.0222349
000110 a1 78 ef 3c 67 f3 65 3d ee af 60 3d 77 ae a9 bd
       0.029232325 0.05614033 0.05485528 -0.0828523
000120 8a 6e 8c bd 50 66 b0 3d 86 dc 08 3e 75 0c ad 3b
       -0.06857021 0.086132646 0.13365373 0.005281026
000130 35 0e 6f bc 9c c8 ec bc 2f 53 da 3d 84 d8 16 bd
       -0.01459079 -0.028904252 0.10660397 -0.03682758
000140 0a 88 19 3c 2b 43 d5 3c 0e 73 41 bd be 06 53 3d
       0.009370813 0.026033005 -0.047228865 0.0515201
000150 4b 5e cb 3d 09 4b ee 3b a4 20 08 3c 46 dd 8c bd
       0.09930094 0.0072721285 0.008308563 -0.06878142
000160 86 91 99 bd b8 9e 74 bc b9 6d e6 bb 10 06 d4 3c
       -0.074984595 -0.01493042 -0.007032123 0.025881797
000170 e6 4f de 3a b6 17 b4 3b 21 8e b9 3d c5 10 fb ba
       0.0016961067 0.0054959906 0.09060312 -0.0019154778
000180 0e 26 52 bd ef dc 6d 3d 89 e4 81 bc 16 89 12 bd
       -0.051305823 0.058072027 -0.015856044 -0.035775267

fc_layers.1.weight f4 [15, 100]
000000 d5 4d 48 be f4 65 c1 3d 06 9f b8 bd 25 20 01 3e
       -0.1956094 0.09443274 -0.09014706 0.12609918
000010 0e 1d 8f bd f7 7e 30 3d 66 29 0d 3c 06 25 93 bd
       -0.069879636 0.043089833 0.008615827 -0.07184796
000020 82 ff 7d 3c 87 e8 e7 3d 39 44 3d 3d 44 61 58 bd
       0.015502812 0.11323648 0.04620764 -0.052827135
000030 c3 66 8a bc 83 3e 9a 3d 82 7e 24 bd cf e0 9f bd
       -0.016894704 0.075314544 -0.04015971 -0.07806551
000040 69 38 24 ba d5 bc d6 bd 51 92 c1 bd 5a ed ba bd
       -0.0006264509 -0.104852356 -0.09451736 -0.091273025
000050 ab a9 ec 3d ec 81 bc bd 31 f3 a4 3d 7a 34 9d 3d
       0.11555799 -0.09204468 0.080541976 0.07676025
000060 5e c9 17 be 86 e5 f0 3d ce 88 a6 3d b9 87 ac 3d
       -0.14822909 0.11762528 0.08131562 0.084243245
000070 2a 49 69 bc 94 f4 00 be 65 48 5d 3c 7f b2 de bd
       -0.014238635 -0.12593299 0.01350603 -0.10873889
000080 ff bd f2 3d c8 18 1a bd 2e a3 92 3d 7a a2 87 bd
       0.11852645 -0.03762129 0.0716003 -0.06622787
000090 96 2f 9b bb 17 85 e8 3d 18 93 e8 bc 8c f0 62 3a
       -0.0047358973 0.1135351 -0.028390452 0.000865706
0000a0 9e f0 80 bc e3 35 8b bd af 46 a4 3c f2 89 1c 3e
       -0.015739735 -0.067973875 0.020053236 0.15286997
0000b0 09 83 39 3e 32 69 5c 3e c3 2b 27 be a0 3c 1a be
       0.18116392 0.21524504 -0.16325288 -0.15062189
0000c0 de ca 28 3d 0c e7 c8 3c a8 59 02 ba 79 0e 8e bd
       0.041209094 0.024524234 -0.0004972466 -0.06936354
0000d0 45 be 8e bb e0 e6 89 bd 5f 75 29 be f3 6a 8f bd
       -0.004356178 -0.06733489 -0.1654868 -0.07002821
0000e0 e0 0a 63 3d 43 f2 93 bd e7 3f df bd ba 9c 5b bd
       0.055430293 -0.07223942 -0.1090086 -0.053616263
0000f0 12 f7 5c bd 6b 10 1c bd 09 9c 24 be 5f 1d aa 3b
       -0.053946562 -0.038101595 -0.16075148 0.0051914896
000100 6a 20 e0 3b 03 12 ab bb 7d bc e0 bd 52 2c c7 3d
       0.0068398016 -0.005220653 -0.10973451 0.0972525
000110 32 2c a9 3d 11 1c ed bd 01 f1 01 be 38 31 12 3e
       0.08260383 -0.11577619 -0.12689592 0.14276588
000120 21 f7 18 3e ba 10 a9 bd 3c 56 c7 3d 1b 80 21 3d
       0.14938022 -0.082551435 0.09733245 0.03942881
000130 a8 87 58 be 22 4b 07 bd 6c 92 ce bd 52 93 b8 3d
       -0.21145499 -0.033030637 -0.100865215 0.09012474
000140 cc 1b 2a 3d 99 bf f3 3d b1 e4 de bc 9c 57 05 bd
       0.041530415 0.11901779 -0.027208658 -0.032554254
000150 a8 88 a5 3c b3 f4 dd bc 2b 16 f9 3d 33 1f ec 3d
       0.020206764 -0.02709422 0.12162431 0.11529388
000160 62 9c 5a 3d b1 c1 ef bd 0e 27 0b 3e d2 ad 96 3c
       0.053371795 -0.117068656 0.13589117 0.01839343
000170 86 8f 2c 3e 1e 5f 6d bd fc 9f d5 bd 59 41 2a 3e
       0.16851625 -0.05795204 -0.10430905 0.1662649
000180 dd 0d 8b 3d 47 09 f4 bc ef b1 1f 3e 60 07 76 3d
       0.067897536 -0.02978958 0.1559522 0.060065627
000190 7b bd 30 3e 1f 37 80 bd ae 7b 56 3e f2 7c a7 3d
       0.17259781 -0.062605135 0.20945618 0.08178128
0001a0 02 b3 f6 3c 35 12 03 3e 2f d3 c5 3b 11 4f 74 bd
       0.030114654 0.12799914 0.006037138 -0.059645716
0001b0 cb a2 2e 3e 65 9a 68 3d 28 a7 68 be 5e fe 4d 3e
       0.17054288 0.056787867 -0.22720015 0.20116565
0001c0 2f 92 12 3e 59 f0 1f 3e 1f 84 d5 3d f2 29 2e be
       0.14313577 0.15619029 0.10425591 -0.17008188
0001d0 14 16 0b bd e2 5d e8 3d 73 21 5b bd 5a 00 70 3e
       -0.033956602 0.11346032 -0.053498697 0.23437634
0001e0 bd 16 34 3e 82 1c 9e 3d 2f 16 ea bd e2 3a a2 b9
       0.17586799 0.07720281 -0.114300124 -0.0003094292
0001f0 43 de 71 3e 20 81 80 3d e9 6d f2 bd a8 af 1b 3e
       0.23619942 0.06274629 -0.1183737 0.15203726
000200 d0 51 86 be 36 aa 0e 3e 2b 67 17 be 88 15 63 be
       -0.26234293 0.13932118 -0.14785449 -0.22176182
000210 20 7b a9 3d 5d e0 96 3e 5d 06 60 be cc 0a f5 bd
       0.08275437 0.2946805 -0.21877427 -0.1196495
000220 71 ef 3b 3e 7e 93 f2 3c bb 56 f8 bd f8 94 cf 3c
       0.18353058 0.029611345 -0.121259175 0.025339589
000230 e7 58 25 bc d5 fc c8 3c 56 14 ee 3d 3f 6a 43 be
       -0.010091997 0.024534622 0.116249725 -0.19083498
000240 b8 83 fa bd 23 70 94 3d 1d fe 08 be cb b5 d8 3c
       -0.122321546 0.07247951 -0.13378187 0.026453873
000250 41 fe d7 3d a8 dc 4a bd b8 ac 3c be 0d ba 8e 3c
       0.10546542 -0.04952684 -0.18425262 0.0174227
000260 00 20 da bc b5 f0 b1 bc ac c1 38 be 08 54 d6 bd
       -0.026626587 -0.021721223 -0.1804263 -0.104652464
000270 ab 34 0e be 43 5f 3f be 2e 47 5c bc ca 13 e6 bd
       -0.13887279 -0.18688683 -0.013444705 -0.11234243
000280 bf 6c a6 3d 98 1a ad 3d 08 5e 24 3e ab 9b 2b be
       0.081262104 0.08452338 0.16051495 -0.16758601
000290 b2 5a 84 be bd 99 04 be 17 e2 ef bd 22 e7 18 3b
       -0.25850445 -0.12949272 -0.11713045 0.0023331125
0002a0 d2 58 e8 bd db 8f b1 3d 52 fe 55 bd 0e 51 fd bd
       -0.11345066 0.086700164 -0.052244492 -0.123689756
0002b0 67 d7 04 bd ef 47 87 ba 58 0e 5e 3d ff 34 eb 3d
       -0.032431986 -0.001032112 0.054212898 0.114847176
0002c0 9b b5 2d 3e ed fc 02 be b1 eb ae 3d 0f 1f 1b bd
       0.16963808 -0.12791796 0.08541048 -0.037871417
0002d0 d7 55 38 be 4c 29 bc bd b4 e7 87 3d 56 3e 19 3d
       -0.18001495 -0.09187564 0.06635991 0.037412964
0002e0 b7 f4 53 3e 94 54 3e be 52 b2 a0 bd 91 23 b0 b9
       0.2069882 -0.18586951 -0.07846512 -0.00033595835
0002f0 c9 a0 12 be 98 61 1e bc 10 e4 27 3e 97 97 13 bd
       -0.14319147 -0.009666823 0.16395593 -0.03603324
000300 7c 58 21 be 8d 35 5c bd 1d 00 05 bd 45 21 17 3c
       -0.1575641 -0.053762008 -0.03247081 0.009224241
000310 b1 f9 9d 3d b3 03 da 3d 3b 4b 4d bd 74 e5 13 be
       0.077136405 0.10645237 -0.050120573 -0.14442998
000320 9a 5c cd bd 67 1a ac 3d d4 c5 b4 bd a1 ee 4d 3e
       -0.10027428 0.08403473 -0.08826795 0.20110561
000330 57 7c f0 3d 17 c0 a0 3d de 0b eb 3d 4a 85 e4 bd
       0.11742466 0.07849138 0.11476873 -0.11158235
000340 45 63 4e bd 8f 81 1f be 8a c2 ac 3d 04 06 e0 bc
       -0.05038764 -0.15576766 0.08435543 -0.027346618
000350 aa 26 c4 bd c6 97 4f bc a4 45 8d bd c2 4d b6 bd
       -0.09577687 -0.012670463 -0.068980485 -0.0890155
000360 a6 a1 c3 bd 02 64 bb bb a9 0d 2b 3d d4 da 1f be
       -0.09552316 -0.005718709 0.041761074 -0.1561082
000370 19 aa ff bd 6e 26 04 3e 60 d7 21 3e 1d 02 90 3d
       -0.124836154 0.12905285 0.15804815 0.07031653
000380 d4 36 4a bc 5a ce 4d be 9c d5 b5 bd 7e 05 20 be
       -0.012342174 -0.20098248 -0.088786334 -0.15627095
000390 08 d3 cf 3d a3 3d aa bd 23 6a 02 3e 5c 11 04 3e
       0.10147673 -0.083125375 0.127358 0.12897247
0003a0 95 72 ee 3d 19 59 9b 3c 06 04 c0 3c 98 6a 24 be
       0.116429485 0.018963384 0.023439419 -0.16056287
0003b0 e9 2c f1 3c f8 73 2d bd a3 21 cc bd 3f 64 b0 3d
       0.02944036 -0.042346925 -0.09967353 0.086128704
0003c0 fc 13 67 be e4 33 21 be ab 83 d3 3d 3d 8d ac bb
       -0.22566217 -0.15742451 0.10327848 -0.0052658604
0003d0 ef 07 dc bd 8f 81 40 be 84 65 78 3e b7 b6 3c bd
       -0.10743701 -0.18799423 0.24257475 -0.046072688
0003e0 d9 30 ac bd ef 89 ce 3d b3 2a 66 3d fd d7 46 be
       -0.084077545 0.100849025 0.056193065 -0.1941833
0003f0 4d 54 12 be d6 16 fc 3c 3f 13 f3 3d 56 86 46 bd
       -0.1428997 0.030772608 0.11868905 -0.048467956

fc_layers.1.bias f4 [15]
000000 ed 4a 46 3c af 67 ac 3d ce a4 bb 3d c6 c7 b5 bd
       0.012102825 0.084182136 0.091622934 -0.088759944
000010 88 c0 40 bb fa 7d be 3d 80 cb 4f 3c 10 96 32 3d
       -0.0029411633 0.09301372 0.0126827955 0.043600142
000020 72 21 94 3b 38 64 c3 bd b6 f5 09 3d 2d 16 5e 3b
       0.0045205886 -0.095405996 0.033681594 0.003388773
000030 c8 13 79 3d fb d4 5a bd 43 cb 93 bd
       0.06080988 -0.05342577 -0.072165035
