proj5/proj5_code/trained_SimpleNet_final.pt (torch, 230655 bytes, 8 tensors)

conv_layers.0.weight f4 [10, 1, 5, 5]
000000 fe 4e 70 3e 71 73 3a 3e ae ef 02 3e f0 c5 15 be
       0.23467633 0.182081 0.12786743 -0.14626288
000010 a6 df 1b bd 30 87 3c 3e c5 34 81 3d 57 c6 d1 3d
       -0.038055085 0.18410945 0.06308893 0.102429084
000020 91 2c 2d 3e c3 57 56 3e 0c e1 28 bc 5c ab 3c 3e
       0.16911532 0.20931916 -0.010307562 0.18424743
000030 c7 72 fe bd 09 40 86 bd 1a 76 cc bd 34 dd 9c 3d
       -0.12424236 -0.065551825 -0.099834636 0.07659379
000040 19 3a e0 bb 33 bd fe bd b1 28 33 be 97 9b 79 bd
       -0.0068428633 -0.12438431 -0.17495991 -0.060939398
000050 0f 67 e8 3c 5e 54 dc 3c da 4d 2b be 6b bc 1b 3d
       0.028369455 0.026895698 -0.16728917 0.038021486
000060 89 47 9c bc 83 c7 a7 bd fa 94 19 3d 29 70 af bd
       -0.01907708 -0.08192351 0.03749559 -0.08566315
000070 57 a6 37 be 04 0e a5 3d 95 f1 5c be 85 7b fd 3d
       -0.17934547 0.08059314 -0.21576531 0.12377075
000080 2e ac ec 3d 1c 84 23 be 0c 9f 10 be 16 10 0d be
       0.11556278 -0.15968364 -0.14123172 -0.13775668
000090 3b 25 51 be 57 d6 27 be 10 9f 49 3d eb 0f 8f bd
       -0.20424359 -0.16390358 0.04922396 -0.06985458
0000a0 c3 ac b2 3d 17 aa bd 3c 4c 7b e9 3d 53 6a ef 3d
       0.08724358 0.023152394 0.1140047 0.116902016
0000b0 8c f1 63 bd 29 aa 62 3e 72 fd d9 3d 77 62 dc 3c
       -0.05565028 0.22135223 0.10644044 0.02690242
0000c0 06 2f 81 bc a2 93 5f 3e fd 64 d6 bd 13 cb 0a bd
       -0.015769493 0.21833661 -0.10468481 -0.033885073
0000d0 ee 94 04 3e fe ee b1 3d 9f 3b 1b 3d 77 00 1c 3d
       0.12947437 0.08688162 0.037898656 0.03808638
0000e0 5b 40 8b 3b 91 16 40 be 26 29 b0 3d 5d ec 41 3e
       0.004249615 -0.18758608 0.086015984 0.18937822
0000f0 51 f5 80 3c 33 54 4a be 24 f5 19 bd 4c 82 13 be
       0.015741976 -0.19758682 -0.0375873 -0.14405173
000100 90 66 c0 3d 3b 0b 87 bd ad e9 82 3d c7 5c ce 3d
       0.09394562 -0.06593939 0.06392226 0.100762896
000110 46 02 e5 bd 9c 2a 3a 3e 5c 55 c2 bc 98 5f 37 be
       -0.11182074 0.18180317 -0.023722343 -0.1790756
000120 0d 20 bf bc 85 04 08 be 83 b5 2c 3e 10 96 38 3e
       -0.023330713 -0.13282974 0.16866116 0.18025994
000130 d3 50 4c 3e 41 70 d5 3d 2c dd 47 3e cb fe f1 bd
       0.19952707 0.10421801 0.19517964 -0.11816176
000140 35 5a c6 3d c7 f9 12 3e 0b 60 a0 3d 67 08 14 3e
       0.096851744 0.14353095 0.07830819 0.1445633
000150 db 97 03 3e 2e d0 16 3d cf 98 30 3e 83 4b 57 3d
       0.12850897 0.03681963 0.17245792 0.052562248
000160 c9 9b 71 3d 30 f0 78 bc 57 68 0e 3c 01 6a 56 3e
       0.05898646 -0.015193984 0.008691869 0.20938875
000170 4d 2d bd 3c 1f eb 16 bc 81 75 4f 3d 94 72 74 3d
       0.02309289 -0.009211331 0.05064917 0.059679583
000180 d5 5a fd bd 7d 4b 50 3e 92 8f 0b 3e 23 5f a7 bc
       -0.123708405 0.20341296 0.13628986 -0.020431107
000190 1c 85 e1 3d a3 58 0b 3e 9a 9c f5 bd 7c bb a2 bd
       0.11011717 0.13608031 -0.1199276 -0.07945916
0001a0 40 ba 25 be f5 98 72 3e 42 36 70 3e b8 f3 39 3e
       -0.1618433 0.23691161 0.23458198 0.18159378
0001b0 38 f6 1e 3e 85 98 ab 3d 73 a4 60 3e a5 96 35 3e
       0.15523612 0.083787 0.21937732 0.17733248
0001c0 2f 05 da bd 43 92 06 bd f2 eb 09 bd a2 72 13 3e
       -0.1064552 -0.03285433 -0.03367228 0.14399198
0001d0 1c 59 67 ba 6d 36 c9 bb 8c 09 56 be e5 df 57 be
       -0.0008825229 -0.0061405213 -0.2090208 -0.21081503
0001e0 44 b1 7b bd 33 bb 2f be 72 ac f2 bd 61 1f 02 be
       -0.06144835 -0.17161255 -0.118492976 -0.12707283
0001f0 09 7d 2d be e9 a5 26 be ed 5e 0d bd 41 64 1d be
       -0.16942228 -0.16274227 -0.034514356 -0.15370275
000200 19 e3 15 3d 99 e8 71 3e 01 f3 34 be e6 2e 2c be
       0.03659353 0.23623885 -0.17670824 -0.16814765
000210 00 12 66 3e e6 41 3a 3e 34 6d 8d bd 97 99 f6 bc
       0.22467804 0.18189201 -0.069055945 -0.030102534
000220 ce 97 d1 bd 45 72 8b 3d 15 f8 28 be 5c f2 3a 3e
       -0.102340326 0.068089046 -0.16500886 0.18256515
000230 3b 0c 55 be be a8 af 3d e7 fa 22 3e 6a e0 18 bd
       -0.20805447 0.08577107 0.15916024 -0.037323393
000240 5c c3 0d 3e 48 20 a4 bc 1e 80 c0 3d a7 92 c1 bd
       0.13844055 -0.020034924 0.093994364 -0.094518
000250 8b bc 9f bd 56 01 4d bc ff a1 3a bd 75 38 3f be
       -0.077996336 -0.012512526 -0.045564648 -0.1867388
000260 68 b2 4c bd 1e ce 3e 3c 12 6c 97 bb 1d ad b2 3d
       -0.04997483 0.011645822 -0.0046210373 0.08724425
000270 e9 cb 29 be e0 dd 3f be 97 23 97 bd 6b 71 23 3b
       -0.16581692 -0.18736982 -0.07379835 0.0024939429
000280 09 d4 4d be 64 e1 c9 3d e4 91 46 bc c5 29 96 bc
       -0.20100416 0.09857443 -0.012119744 -0.018330464
000290 5b eb 11 3e 14 41 25 3e 6a c6 ae 3d 67 ad e6 3d
       0.14249937 0.16138107 0.08533938 0.112635426
0002a0 66 c2 65 3d b5 49 b9 bd a3 75 2a 3d 12 45 ed 3d
       0.056093596 -0.090472616 0.041616093 0.1158544
0002b0 19 c6 06 be a1 10 3a 3e d5 27 71 bb ee 21 c8 3d
       -0.13161506 0.18170406 -0.0036797423 0.097720966
0002c0 43 d5 71 bd 2d a9 58 bd 14 b2 8b bd 64 4d 56 bd
       -0.059041273 -0.052895714 -0.06821075 -0.0523199
0002d0 04 a7 16 bd 12 ee 0b be 1b 20 c2 3b 02 ef ed bd
       -0.036780372 -0.13665035 0.0059242374 -0.11617853
0002e0 04 8a 3c be d3 c4 f7 3d c1 ac 3d 3e 73 07 0b be
       -0.18412024 0.12098088 0.18522932 -0.1357706
0002f0 13 5d d6 bd 1a 00 83 bd 69 f8 e0 bd bc 17 25 3e
       -0.10466971 -0.06396504 -0.109848805 0.16122335
000300 4d 68 02 bd 07 90 e4 3d 23 3e 29 be bb 3b 83 bd
       -0.03183775 0.111602835 -0.1652761 -0.06407877
000310 03 d5 a9 bd 03 5d dc 3d db 71 37 3e 20 fc 5c 3e
       -0.08292582 0.10759928 0.17914526 0.21580553
000320 a7 75 19 3e 23 11 7d 3e 75 f5 13 bd 3f e6 b0 3d
       0.14986287 0.24713568 -0.036122758 0.08637666
000330 ad 78 18 3e 60 98 84 3d f0 bc ae bc ac 5f a4 bd
       0.14889784 0.06474376 -0.021330327 -0.080260605
000340 81 bb 19 3e 2e 28 07 be a8 24 3b 3e 85 0a 6e 3e
       0.15012933 -0.13198921 0.18275702 0.232462
000350 4f 9a 0b bd 74 ae a2 3c b5 cd 17 3e 15 b2 87 3d
       -0.034082707 0.019858576 0.14824565 0.06625763
000360 49 76 f1 3d c6 00 19 3e 21 38 49 3e fb fa b9 bd
       0.11790139 0.14941701 0.19650318 -0.09081074
000370 d7 97 4a 3e aa 87 31 3d c3 3e ea 3c 5f 60 ba bd
       0.19784485 0.04334227 0.02859438 -0.091004126
000380 9f 95 fc 3d 36 ec a9 3d 28 a2 92 bd e7 66 19 be
       0.123332255 0.08297007 -0.07159835 -0.1498066
000390 bd 06 3d be f1 d0 2f 3e c0 a1 42 3e 7b c2 96 3d
       -0.18459602 0.17169549 0.19007015 0.07361313
0003a0 2b c8 45 bd 89 15 39 be 89 7e 61 3d 42 1d 30 3e
       -0.0482866 -0.18074621 0.055052314 0.17198661
0003b0 10 d8 6f bd 19 97 71 3e 15 12 76 bd 51 5b 2c 3e
       -0.058555663 0.23592795 -0.060075838 0.1683171
0003c0 76 6a 54 be 03 76 4e be a0 55 b0 3d 0e 07 0a 3c
       -0.20743737 -0.20162205 0.08610082 0.0084245335
0003d0 c0 3a 74 3b e8 26 66 be 92 8a 1d bd 84 87 35 bd
       0.0037266463 -0.22475779 -0.03846223 -0.04431869
0003e0 f5 7c 25 3e e5 41 2e be
       0.16160949 -0.17017324

conv_layers.0.bias f4 [10]
000000 49 2e 26 be 68 f7 0c 3e b0 7f a1 3c 24 a8 63 be
       -0.16228594 0.13766253 0.019714206 -0.2223211
000010 d9 b3 a6 3b 25 ee 9a 3d 1e de 2e 3e 1c 7b 49 3e
       0.0050873575 0.07564954 0.17076918 0.19675869
000020 a0 f4 d2 bd 03 87 1b 3e
       -0.10300565 0.15188222

conv_layers.3.weight f4 [20, 10, 5, 5]
000000 2f 8a c1 3d 43 25 ca 3d 5c bb 2b 3c 75 cb 0e 3e
       0.094501846 0.09870388 0.010481682 0.139448
000010 49 df 15 3e d1 0e 94 bc 86 cf 04 bd 10 25 07 bd
       0.14635958 -0.018073471 -0.032424472 -0.03299433
000020 83 06 1c bd 1b e3 4f bd 28 03 81 3d 18 9b e9 3d
       -0.038092148 -0.050753694 0.0629943 0.11406535
000030 7f 8e b4 3d 07 2f 23 3e eb f1 fd 3d 2d 44 00 3d
       0.088162415 0.15935908 0.12399658 0.031315017
000040 28 ff a4 bc 63 23 2c 3d c8 ed 41 3d 58 c7 94 3c
       -0.0201412 0.042025935 0.047345906 0.01816146
000050 58 ca a5 bc 85 9c 1c bc e9 d3 c4 3b 3a 7c 4d 3d
       -0.020238087 -0.009558802 0.006006707 0.0501673
000060 15 da 73 3d ae bb 39 3d f7 89 9b bc 06 12 1d 3c
       0.05953415 0.045345 -0.018986685 0.009586817
000070 f3 2f 0b bc 1d 04 a9 bc da 3a 00 3e 12 b2 3b 3e
       -0.008495319 -0.020631844 0.1252245 0.18329647
000080 1b 6f 32 3e 2c 75 41 3e c6 a0 04 3e 58 2e 95 bc
       0.17425196 0.18892354 0.12951955 -0.018210575
000090 6d 08 50 3d 7d 92 0d bc cf e2 1d 3d 7a 30 fe 3c
       0.050789285 -0.008640883 0.03854638 0.031028975
0000a0 b6 7c 04 3c 82 a6 a0 3d 69 0e 40 3c 35 5a d6 3d
       0.008086374 0.07844259 0.011722186 0.104664244
0000b0 20 50 be 3d 77 24 ba 3a 40 41 99 bd 11 99 1d bd
       0.092926264 0.0014201541 -0.074831486 -0.038476054
0000c0 35 23 05 3c ba 9c bb bb 7a 79 8e 3d 6e d8 34 3d
       0.00812607 -0.0057254704 0.069567636 0.044151716
0000d0 e8 4d 7c 3d 91 16 80 3d f3 b6 89 3d af a7 07 3d
       0.061597735 0.06254304 0.06724348 0.0331189
0000e0 61 51 71 bd 51 af b0 bc 50 cb 94 bc e3 0c 73 3d
       -0.0589155 -0.021567972 -0.018163353 0.05933846
0000f0 92 1d ed 3d 9e ec 63 bc 40 83 38 3d 35 1f fc 3d
       0.11577906 -0.013911394 0.045047045 0.1231064
000100 0f 6f 91 3c 6b 9b c4 3d 6b 21 4f 3d 04 4b da bb
       0.017753152 0.09599956 0.05056898 -0.0066617746
000110 d3 0e 21 3c 8d 89 01 bc ac 3c e5 bc fb d1 9f 3c
       0.0098301945 -0.00790633 -0.027983032 0.019509306
000120 6b 5e 5d b9 3c 92 16 3d f0 22 24 bb d8 fc 7d bb
       -0.00021111376 0.036760554 -0.0025045238 -0.0038755443
000130 e1 c7 8a bd 98 5d b9 bd 12 0b 64 bd b4 e9 92 bd
       -0.06776405 -0.09051055 -0.05567462 -0.071734816
000140 8e 23 a3 3b 84 07 2c 3c 4d 89 98 bd 4c 81 a5 bc
       0.0049786037 0.010499839 -0.07448063 -0.020203255
000150 43 d9 dc 3c ea 12 92 bd 51 01 15 3d f4 dc cb 3c
       0.026959067 -0.07132514 0.03637821 0.024885632
000160 bf 8d 37 bd 52 ed 2a 3d 43 87 62 bd 40 7c b1 bc
       -0.044812914 0.041730233 -0.055304777 -0.021665692
000170 13 58 62 3d ec c1 56 3d 65 d0 ab 3b 9e 88 04 bd
       0.055259775 0.052431032 0.0052433484 -0.03235685
000180 ae 98 d2 bc 25 8a a3 3c 1b 4b 7c 3d 43 61 aa 3d
       -0.025707569 0.019963333 0.061595064 0.083193325
000190 e2 a0 99 3d 5d 4d fa 3d c0 e0 6d 3d c8 ca ef 3d
       0.07501389 0.12221787 0.058075666 0.11708599
0001a0 e2 4e 41 3e 48 94 ad 3c fd 5a 79 3d 6d c5 71 bd
       0.18877748 0.02118887 0.06087779 -0.05902617
0001b0 e1 d7 c2 bd 00 72 31 bc 0f d6 0a 3d a6 36 63 3d
       -0.09513832 -0.010830402 0.03389555 0.05547204
0001c0 a0 6d 1c 3e 1f f7 fb 3d f2 2d 3a 3e e6 68 8b bd
       0.15276194 0.12302994 0.18181589 -0.06807117
0001d0 fe 39 c1 3c be 1b d5 bb 12 72 40 bd f7 49 3f bd
       0.023587223 -0.0065035513 -0.046983786 -0.046701398
0001e0 52 6a 2b bb 4a f1 68 3d bd cc 98 3d 25 7c 8f 3d
       -0.00261559 0.056870736 0.07460926 0.070061006
0001f0 3e 75 86 3c dd 73 89 3d 18 d9 80 3b 94 c8 69 3c
       0.016413327 0.06711552 0.0039321296 0.014269013
000200 da d4 0c bd ea 47 2a bd 7d d0 e5 3c fd 62 71 3d
       -0.03438268 -0.04157249 0.028053517 0.058932293
000210 6d f8 da 3d 5e b4 4d 3d e9 3f b7 3c ec 95 a4 bc
       0.10691915 0.05022084 0.022369342 -0.02009102
000220 8f ee 3f bd d3 7e 9b 3d 69 ed 77 bc 95 7e 58 bc
       -0.046858367 0.07592549 -0.015132287 -0.013213773
000230 5e 01 a9 3b 8c a8 6c 3d 86 ad 0d bd 13 ac 70 bd
       0.0051576337 0.057777926 -0.034589313 -0.058757853
000240 0a 03 6a 3d da d3 a4 3d 5a cb c7 3c 2a fb 48 3c
       0.057131805 0.0804822 0.024388958 0.012266913
000250 76 e0 64 3c 74 86 b7 bc 42 31 35 bd e9 2c aa 3c
       0.013969531 -0.02240298 -0.04423643 0.020773368
000260 d7 ac a7 bd a9 6d 1a bd df 51 16 3d 61 72 82 bc
       -0.081872635 -0.037702236 0.036699172 -0.01592368
000270 48 6e 88 3d 12 a0 7b 3d 0a 13 a2 3d b4 f1 0f 3d
       0.066616595 0.06143195 0.07913788 0.035142615
000280 96 12 9a 3b c1 9d 8b 3c 94 42 91 bc 66 8d a6 bc
       0.0047019226 0.017042996 -0.017731942 -0.020331096
000290 fe bd 06 bd be de dc 3c f0 41 30 bd f4 0a 3a 3d
       -0.032896034 0.02696168 -0.043031633 0.045420602
0002a0 56 d3 6b 3c 34 05 73 3d 92 da 79 bd 64 a4 6f bd
       0.014393648 0.059331134 -0.06099946 -0.058506384
0002b0 a7 53 8c bd 23 09 af bc 0a 4c 89 bd 47 20 34 bd
       -0.06851893 -0.021366661 -0.067039564 -0.043976095
0002c0 79 ca 0c 3d 57 14 43 bc 07 5e 5f 3a 36 dc 54 bd
       0.03437278 -0.011906705 0.0008520786 -0.051967822
0002d0 4e 07 d8 3d f8 6a 3c bb 75 1a a6 3d 95 31 eb 3c
       0.10548268 -0.0028750282 0.08110515 0.028710166
0002e0 f6 6c 59 3d ec 13 2b 3d d1 98 ec 3c e9 74 90 bd
       0.05308243 0.041767046 0.028881462 -0.07053549
0002f0 3d 3c 13 3d 27 6c e5 bc c9 f4 3b bd b1 a8 42 3d
       0.03594612 -0.028005673 -0.045887742 0.047524158
000300 5e 80 1f 3d e6 65 7f 3c f9 5f f6 bc 22 83 9f bd
       0.03894078 0.015588259 -0.03007506 -0.077886835
000310 34 15 a8 bd 1f 33 09 bd dc 3e 9b bc b1 a3 d3 bd
       -0.08207169 -0.03349602 -0.018950872 -0.10333956
000320 76 fe 94 bd 4a 7f c9 bc 31 fa 78 bd 9f 4e 97 bc
       -0.07275097 -0.024596829 -0.060785476 -0.018470107
000330 3c 16 b5 bd 19 20 a4 bd c1 b4 79 bd f0 52 15 bd
       -0.088421315 -0.08013935 -0.060963396 -0.03645605
000340 7b 31 49 bc 64 ee 36 bd 0d d8 95 bd 4f 04 72 bb
       -0.0122798635 -0.04466094 -0.07316599 -0.0036928838
000350 13 14 ee bb b8 76 a5 3c f9 da 83 3c da 5e 67 3d
       -0.0072655766 0.020198211 0.016095625 0.056486942
000360 55 dc 02 3d 2a 97 9d 3c e1 11 7e 3d bc 3e b8 bb
       0.031948406 0.01923712 0.06202877 -0.005622713
000370 1b f8 f9 3c fd 53 91 3d 8d f6 0f 3d c8 7f 8a 3d
       0.030513814 0.070960976 0.03514724 0.067626536
000380 0f 4d 9b 3c 00 3c 37 3d 1c bd 33 3d 3a d3 52 3d
       0.018957643 0.044734955 0.04388152 0.051470973
000390 cb fb 95 3d 9e 95 57 3d a2 51 ea 3c ec 8c b5 3d
       0.07323416 0.05263292 0.028603379 0.08864769
0003a0 33 02 b6 3c 9c 28 94 bd cd 12 8e bd 55 41 e8 3c
       0.022217846 -0.07234308 -0.0693718 0.028351465
0003b0 c0 59 40 3d 3b c9 38 bc 9f 93 8a 3d 4e 55 5d 3d
       0.046960592 -0.011278446 0.06766438 0.05403643
0003c0 4d 97 c9 bc 68 cd a8 bb 49 8b e2 bc 01 b6 83 bd
       -0.024608279 -0.0051514395 -0.027654307 -0.06431199
0003d0 00 35 81 bd 26 82 a0 3d 0a 37 21 3b 34 0f b6 bd
       -0.06308937 0.07837324 0.0024599456 -0.088896185
0003e0 1f ea dc 3c dd dc 31 bd 5e 02 22 be 50 39 34 be
       0.026967106 -0.043423522 -0.15821216 -0.17599988
0003f0 9c 32 c9 bd 07 95 b2 bd 01 4a 98 bd 2c 32 21 bd
       -0.09824106 -0.08719831 -0.0743599 -0.03935449

conv_layers.3.bias f4 [20]
000000 c7 c3 9d bd 0a 67 de 3c e4 86 de bc 80 7e 14 bd
       -0.07703357 0.027148742 -0.02716393 -0.036253452
000010 6c ff 61 3c 25 0d e6 3d 6a 91 20 3d 95 b8 30 bc
       0.0137938075 0.11232976 0.039201178 -0.010786195
000020 3b cd 0c 3e 60 51 9b 3c 98 d7 25 3d 05 a2 10 3d
       0.13750164 0.018959701 0.04048881 0.035310764
000030 f1 06 6f 3d 88 a7 e6 3d 59 76 65 3d 85 a5 88 bd
       0.05835623 0.11262423 0.05602107 -0.06672195
000040 53 56 41 3d 10 f0 b8 bd 6e c8 96 bc 8c 94 88 3d
       0.047201466 -0.09030163 -0.01840612 0.06668958

fc_layers.0.weight f4 [100, 500]
000000 fb 3b 7f 3d 21 f9 9d 3d df 1d d3 3c b9 6f 25 3d
       0.06231306 0.07713533 0.02577108 0.04038975
000010 44 34 a8 3d 38 43 65 3c 07 c1 4a 3d 96 0d 9b 3c
       0.08213094 0.013993077 0.04950049 0.018927377
000020 24 48 5c 3d 0f aa 68 3d a6 3b 9a 3b ac f3 ca 3b
       0.053779736 0.056802806 0.0047068177 0.0061935987
000030 8d 5f c3 3c 40 0d 6b 3a 93 6c 66 b9 a7 7e aa 3b
       0.023849273 0.0008966513 -0.00021974956 0.0052030864
000040 9e 10 72 bd 8f fb 1e bd ef ec bf bc a5 b8 07 bd
       -0.05909788 -0.038814124 -0.023428408 -0.033135075
000050 73 f1 2f 3d 18 33 4d 3d 5e af 75 3d cb 21 1f 3c
       0.042954873 0.050097555 0.059981696 0.009712647
000060 15 b6 40 3d 85 ae db bc 91 35 84 bc a0 ea 8c 3d
       0.047048647 -0.026816616 -0.016138824 0.06880689
000070 91 b3 0e 3d d7 da 0b 3d 08 c2 2a bd 8f 27 dd bc
       0.034839217 0.03414425 -0.04168895 -0.026996402
000080 69 31 ed 3d 9a c5 c3 ba ad f4 8c bd 21 ea 67 3d
       0.1158169 -0.0014936209 -0.06882606 0.056619767
000090 3e 6d 83 bb 05 a9 d7 3c 79 0e 45 3d 6e 78 08 bd
       -0.0040108254 0.026325712 0.048109505 -0.033317976
0000a0 30 13 6c bd 4a 1a 11 3c 0b f0 51 3d 58 ce 08 bc
       -0.057635486 0.008856365 0.051254313 -0.008349977
0000b0 c4 9d 97 bd 50 ef e9 38 d8 88 b9 3d 32 9b 2e 3d
       -0.07403138 0.00011154881 0.09059304 0.042628475
0000c0 11 16 8f 3d ed 42 a3 3d a9 93 ec 3c 5a d4 1a 3c
       0.06986631 0.079717495 0.028879004 0.009450043
0000d0 42 24 e5 bc 7a 44 f3 bc 0a df 5d bc b4 6f 38 bc
       -0.02797139 -0.029695738 -0.013541946 -0.011257101
0000e0 87 78 c7 3a 92 54 9a bd cf 07 3a bc cd 4a 2a bd
       0.0015218415 -0.07535662 -0.011354401 -0.04157524
0000f0 d7 07 d3 bc 76 c9 6a 3d b7 ec 31 bd 02 a2 56 bc
       -0.025760574 0.057321034 -0.04343864 -0.013100149
000100 0e 88 53 bd 46 2e 78 bc e7 c5 26 3d e9 99 93 bc
       -0.051643424 -0.015147751 0.040716078 -0.018017726
000110 7e 12 2d bd 66 a4 50 3d ee 7c 3f 3c f4 aa 5a bc
       -0.042253964 0.050938033 0.0116875 -0.013346422
000120 a6 34 fd 3c 02 57 26 3d 7d ad 2a 3d 40 b5 84 bb
       0.030908894 0.04061032 0.041669358 -0.004049927
000130 89 79 8f 3c 7c 29 df bc f5 81 21 bd ce 6b 0c bc
       0.017514007 -0.027241461 -0.039430577 -0.0085706245
000140 a5 53 fe 3c d7 1a 35 bd 98 1c 86 bd 1f 67 0a bd
       0.031045744 -0.04421505 -0.065484226 -0.03378975
000150 c8 69 06 3d fc 2c 55 bd 87 3f 42 bd b7 47 83 bd
       0.032815725 -0.052044854 -0.047423866 -0.06410163
000160 11 8c 78 bd 27 e2 54 bb 66 93 47 bd 63 70 e2 bc
       -0.060680453 -0.003248343 -0.048724554 -0.02764148
000170 24 3e 28 bd 72 b9 d3 bc 91 ec 53 bd 00 bb 33 36
       -0.041074887 -0.025845263 -0.05173928 2.6781927e-06
000180 24 69 99 bd 88 48 71 bd 5e 14 bc bb 54 14 83 3d
       -0.07490757 -0.05890706 -0.0057397326 0.06400362
000190 31 5e 47 bc cb f7 f0 3c 53 5d 70 3c 36 1c 56 3d
       -0.012168453 0.029415032 0.014670688 0.052272998
0001a0 81 ef 1b 3e 84 6c f8 bb 3a 4c a5 bc 06 55 0a 3d
       0.15228082 -0.0075812954 -0.02017795 0.03377249
0001b0 a7 75 0c bc 45 8f 89 3d f2 fc 10 bd e9 23 8a bc
       -0.008572972 0.067167796 -0.035397477 -0.016862826
0001c0 f7 6b 45 3d 22 06 7e 3d ee fb 04 3d e0 15 2d bd
       0.048198666 0.062017567 0.03246682 -0.04225719
0001d0 d6 ad 18 bc 30 bf 04 3d b6 d8 2d bc 6f 3c c2 3c
       -0.0093187895 0.032408893 -0.01061075 0.023710458
0001e0 e2 db 14 3d f2 63 d1 3b 3b 55 ff bc 79 20 e2 bc
       0.03634251 0.0063900882 -0.03116857 -0.027603375
0001f0 53 d7 1a 3d 49 47 26 be 63 54 08 be 65 2e dc bd
       0.037803005 -0.1623813 -0.13313441 -0.107510366
000200 65 28 b8 bd cc a4 98 bd 98 32 02 be 17 50 30 be
       -0.0899208 -0.074533075 -0.12714612 -0.17218052
000210 e2 0a f6 bd fb 9d de bd 84 5e 2a be 36 05 d9 bd
       -0.120137945 -0.10869976 -0.16637617 -0.10596697
000220 97 12 97 bd 94 1b fe bd 94 da 02 be 01 64 3b bd
       -0.073765926 -0.12407604 -0.12778693 -0.045749668
000230 0e d6 31 bd c7 51 a2 bd bb ea d3 bd 81 5f 2f be
       -0.04341703 -0.07925754 -0.10347506 -0.17126276
000240 5d e5 02 be dc 3a 90 bd 1c 1f ea bc 8c f1 a2 bd
       -0.12782808 -0.070424765 -0.028579287 -0.07956228
000250 a2 3c a1 bd a2 c5 c5 bd 2c bb a4 bb 02 76 0a bd
       -0.07872893 -0.09656836 -0.0050271954 -0.033803947
000260 6d a3 ce bc 9b c1 3f bd 9c 92 15 bd 5b 4e 2e 3c
       -0.025224412 -0.046815496 -0.03651677 0.010638799
000270 da 71 07 3d df ae 4f 3c ca bb c7 bc 27 b1 4e bc
       0.03306756 0.01267597 -0.024381537 -0.012615479
000280 f1 23 51 bc 9c 2a 48 bd 0e f6 d0 3c 23 fa 0b bd
       -0.012764917 -0.04886876 0.025507953 -0.034174096
000290 3d 0b ee bc 69 82 7b 3d 57 8d f1 3c f0 5f e1 3c
       -0.029058093 0.061403666 0.029486341 0.027511567
0002a0 a4 41 ce bd 88 59 72 bd e0 55 35 3d 68 a8 8a bd
       -0.10071114 -0.059167415 0.04427135 -0.06770402
0002b0 e1 18 95 bd cf 5b 25 3c dd 4e 54 3d 99 87 c5 3d
       -0.07280136 0.01009269 0.051833022 0.09645004
0002c0 6c cb ee 3d 8a 2f 5e 3d 3d 1f aa 3c 22 0a a5 3d
       0.116598934 0.054244556 0.020766849 0.08058573
0002d0 a6 e0 31 bd 8f c0 78 3d 6f 30 55 bd ee 17 8e bd
       -0.043427132 0.060730513 -0.052048143 -0.06938158
0002e0 0b 04 9a bc c1 fe 82 3d da f0 73 3c d4 58 b6 b8
       -0.018800756 0.06396247 0.014888966 -8.694982e-05
0002f0 d3 8c d6 bc 1d 77 30 bd 55 e7 10 3b 27 0a 0e 3d
       -0.026190197 -0.043082345 0.002211054 0.03467765
000300 75 54 83 bc 36 9d cf 3c a6 f3 a5 bd 26 29 53 3d
       -0.016031483 0.025343519 -0.08103113 0.051552914
000310 39 15 a8 3d 11 7e b4 3d 8e 87 50 3d 09 e5 ee bb
       0.08207173 0.08813108 0.050910525 -0.0072904867
000320 71 fa 30 be ec 4f 25 bd 55 c1 68 bc 8e fc 08 bd
       -0.17283036 -0.040359423 -0.01420625 -0.03344398
000330 74 17 82 bd d5 4e 00 be 30 e8 aa bd 05 6b ec bd
       -0.063521296 -0.12530072 -0.083450675 -0.1154385
000340 06 07 2c be fa 92 23 be 89 c6 9a bc 3d 8b 4c bd
       -0.16799554 -0.15974036 -0.018893497 -0.049937475
000350 b9 74 40 bd 98 2b e6 bd b4 fd cc bd 46 43 1b bb
       -0.046986315 -0.112387836 -0.100093275 -0.002369122
000360 b6 bb ad bc 27 28 ac 3b bd 87 de 3c 70 3c c3 bd
       -0.021207672 0.00525381 0.027164334 -0.09533012
000370 2f 98 0c bc 82 50 2a 3c 0e 66 62 3d 56 14 d4 3c
       -0.008581205 0.010395171 0.05527311 0.025888603
000380 1d 32 a8 bc d4 6b 69 bc 52 d2 0b 3d 7a 58 64 3c
       -0.020531708 -0.0142469 0.034136124 0.01393711
000390 71 fe ab 3d 9f 41 89 bd 5e 12 f9 3a 42 57 1e bd
       0.0839814 -0.06701969 0.0019002666 -0.038657434
0003a0 31 a3 d8 bc 95 7a 7e bc 43 6f 19 bc 5d bb 8b bd
       -0.026445003 -0.0155321555 -0.009364906 -0.06822846
0003b0 e3 7b 6d bd 68 66 22 bd e0 20 52 bd 19 bb c0 b9
       -0.057979476 -0.039648443 -0.051300883 -0.00036760492
0003c0 11 9b f0 bc f2 7b 06 3b 14 83 71 bd 58 bd 70 bd
       -0.029370816 0.0020520655 -0.058962896 -0.058774322
0003d0 d4 e2 ed bb d1 f0 48 3d a7 26 fc bc 3b c5 ad bb
       -0.007259706 0.049057785 -0.03078015 -0.0053030527
0003e0 c7 a4 e8 bc 70 cc 40 3d 09 08 63 3d 38 8b 10 3d
       -0.028398884 0.047069967 0.055427585 0.03528902
0003f0 f3 84 05 3d e8 69 9a 3d a1 c5 a8 3c c4 ae d4 3b
       0.032597493 0.07539731 0.02060205 0.0064905602

fc_layers.0.bias f4 [100]
000000 b5 61 12 bd 4f 63 ba 3d cd 47 53 3c 86 1b f2 bc
       -0.035737712 0.09100973 0.012895537 -0.02955414
000010 b2 7f 95 bd 80 82 d6 3d c0 74 a3 bc 76 05 00 3b
       -0.072997466 0.1047411 -0.019953132 0.0019534505
000020 b5 72 19 3d f5 6e 22 bd fa 88 62 3d 0a 3e a7 3d
       0.03746291 -0.039656598 0.055306412 0.0816613
000030 24 ca 86 bb 8a d1 ca 3c fb 79 c5 3d 1f 34 59 bc
       -0.0041134525 0.02475812 0.096424066 -0.013257056
000040 c3 c5 20 bd 43 3d e8 3b 84 06 ed bd 91 e9 48 3d
       -0.0392511 0.007087381 -0.115735084 0.04905087
000050 20 68 77 3d 1a 94 c4 bc 3d 75 ee 3b 4a 71 ce 3d
       0.060402036 -0.023996402 0.0072771595 0.10080202
000060 b2 47 39 3b 63 bd 6b 3d 60 42 33 3d 40 d6 63 bc
       0.0028271494 0.05755366 0.043764472 -0.013906062
000070 57 c8 95 3d a1 c4 86 bd 34 74 68 3b c2 ff 1a 3d
       0.073136024 -0.06580473 0.0035469653 0.037841566
000080 d0 59 9b 3d 2f 6a b3 bc 88 2a c8 3d 4b 5d 4b bd
       0.0758549 -0.021901218 0.09773737 -0.049649518
000090 7f ed 2e 3d 65 ea 1f 3d 6f ac 2d 3d ae a0 a8 bc
       0.042706963 0.039041895 0.042400774 -0.02058443
0000a0 f1 30 06 3e 51 2d 91 bd 70 78 6c bd 56 11 a4 bb
       0.13104607 -0.070887215 -0.057732046 -0.0050069494
0000b0 39 0a ae bc 45 b0 fd 3c f2 96 1c 3d 6d 5e d9 3d
       -0.021245109 0.03096784 0.03822989 0.106137134
0000c0 d2 c2 09 3c 9a 72 f4 3d 18 9a 95 3d ff 01 86 3c
       0.008408265 0.11935921 0.07304782 0.016358374
0000d0 66 0d 04 3d e8 6f c6 bd 96 72 83 bd 9d 50 bb bc
       0.03223934 -0.09689313 -0.0641834 -0.022865588
0000e0 ac a9 6e 3c ab 6b 9b bc e7 da af 3d b4 65 16 3d
       0.01456682 -0.018972239 0.08586674 0.036718085
0000f0 07 5c bf 3c 30 6c 28 bd 78 06 4b 3b e1 e8 99 3c
       0.023359312 -0.0411188 0.0030979197 0.018787803
000100 16 d2 ae 3b c6 62 56 ba 91 dc b7 bc 40 52 e7 3c
       0.005335103 -0.00081781705 -0.022444041 0.028237462
000110 35 74 73 3d 83 eb 3e 3b de 70 16 bd d6 98 98 3d
       0.059436996 0.0029132075 -0.036728732 0.07451026
000120 fd b7 53 3d 6a 7b df bc c8 c1 ee 3b 0f 5c 87 3b
       0.051689137 -0.027280528 0.007286284 0.0041308473
000130 c8 14 b8 bd 20 f2 fe bc a4 f5 c8 3d 42 eb 9f 39
       -0.08988339 -0.031121314 0.09812477 0.00030502124
000140 52 82 eb bc 10 7d e7 3c 9a 45 d5 3c 9c 47 2a 3d
       -0.028748665 0.028257877 0.026034165 0.0415722
000150 db 7f 28 bc c9 34 b0 bc 7b 41 2d 3d 3f 0e 67 bd
       -0.010284389 -0.021509545 0.042298775 -0.05641007
000160 f9 5a fe bd 69 23 73 bb e9 ef 0e 3d 29 08 ca bb
       -0.124196954 -0.0037099964 0.034896765 -0.0061655235
000170 c2 fd c8 bb 06 0f fc bc c8 9d 1b bd 2c 9f b1 3d
       -0.006133766 -0.030768882 -0.03799227 0.08672938
000180 6d fd 88 bd 33 49 0c 3c 4a eb b1 3a 25 ae 01 3d
       -0.06688962 0.008562374 0.001357415 0.031660218

fc_layers.1.weight f4 [15, 100]
000000 f3 6e 05 be 72 3c 4f bc 29 15 71 3d d6 8a 3c 3d
       -0.13030605 -0.012648689 0.05885807 0.04603084
000010 8a 48 84 3c ef 31 89 3d b4 65 e2 3d cc 65 3e 3d
       0.01614787 0.06698977 0.110545546 0.0464838
000020 4d 17 92 3e ee c9 3c bd aa 23 c0 3d f4 43 44 bc
       0.28533402 -0.046091013 0.093818024 -0.011979092
000030 dc e2 60 bd 1c d1 32 be 5d a6 bb bd a0 c6 71 bd
       -0.05490385 -0.17462581 -0.09162591 -0.059027314
000040 2b ae 0f 3e c0 c6 b5 3d aa 4e 41 3d 1d ac 01 be
       0.14031284 0.08875799 0.04719416 -0.12663312
000050 6d 53 ee 3c 86 58 85 bd 54 14 91 3e 30 f7 0f be
       0.029092515 -0.06511025 0.28335822 -0.14059138
000060 1b 83 0d 3e 36 88 fa bd 1a 79 f0 bd 99 62 cd bd
       0.13819544 -0.122330114 -0.11741848 -0.10028572
000070 7a 57 e9 3d 68 f6 da 3d e1 81 d7 3d 11 e6 b6 bd
       0.11393638 0.106915295 0.10522819 -0.089306004
000080 41 62 d4 3c f3 17 0a 3e d7 09 8b bd 1f 04 aa 3c
       0.025925757 0.13485698 -0.06788986 0.020753918
000090 be cd 00 be 87 57 03 3d 90 6e 81 3d bf 62 88 bd
       -0.12578484 0.032065894 0.06319916 -0.06659459
0000a0 e6 40 02 be 2a 0b 13 3d d3 3e 61 3c 16 54 81 be
       -0.1272007 0.03589932 0.013747889 -0.25259465
0000b0 4d 18 36 3e 04 ec cd 3d 3e 0c 5b 3e 6f 2f aa bc
       0.17782708 0.10054782 0.21391389 -0.020774571
0000c0 85 da e9 3c 40 79 ce bd 8c e4 ce bd cd 50 0a be
       0.028546581 -0.1008172 -0.101021856 -0.13507386
0000d0 22 10 c7 3d bc ac e4 bb a0 02 fb bd de 45 b9 bd
       0.09719874 -0.0069785994 -0.1225636 -0.09046529
0000e0 34 c6 51 3a 76 fa 3f 3e 69 bc 60 be 5a 7d 21 3d
       0.0008002252 0.18747887 -0.21946873 0.039426185
0000f0 74 96 38 be 56 20 16 be 72 ff d9 3c e2 b4 04 be
       -0.18026143 -0.14660773 0.026611064 -0.12959626
000100 38 c0 7f 3d 70 ff 96 bb 78 05 0d bd 99 7c b9 3d
       0.062439173 -0.0046080872 -0.034429044 0.09056968
000110 ac 32 a5 bb 20 23 20 bd 96 68 4a 3e 6f 4a 42 3d
       -0.005041441 -0.039095998 0.19766459 0.047434267
000120 38 61 0f be af d4 99 bd c6 34 d7 bd da f7 f5 3c
       -0.1400193 -0.07511269 -0.105081126 0.030025411
000130 9c 39 39 b9 a5 56 4f bd 5d 35 2f 3d 9d 99 d6 3d
       -0.00017664436 -0.05061974 0.0427755 0.10478518
000140 f8 e9 48 3d 20 d6 ff ba b4 93 3f bd 21 cb ff bd
       0.049051255 -0.001951877 -0.04677172 -0.12489916
000150 cc 12 aa 3d 82 4c 5c 3e 71 98 af bd 0f 32 17 3e
       0.083043665 0.2151356 -0.08573998 0.1476519
000160 1d fc 96 bd 5d c1 10 be 2f 7d 16 3d 81 32 1e be
       -0.073723055 -0.14136262 0.036740478 -0.15448953
000170 fe eb a0 3b 8c 1a b4 bc 75 af a1 3c 2a 45 a3 3d
       0.004910945 -0.021985315 0.019736985 0.079721764
000180 c5 02 26 bb 8a 96 f1 bd e6 10 1a bc e0 2e 0f be
       -0.002533124 -0.11796291 -0.009403443 -0.13982725
000190 bd b7 9d bd 71 ce 2f 3e 36 02 b0 3d 51 76 04 3e
       -0.07701061 0.17168595 0.08594172 0.12935759
0001a0 ac 69 d9 bd 5f 64 6b 3e f3 e2 1d be 92 fd f0 bd
       -0.106158584 0.22987507 -0.15418606 -0.11767115
0001b0 a6 60 4f 3d f6 f0 1c 3d 2c b4 ae bd e3 f9 39 3e
       0.05062928 0.038315736 -0.08530459 0.1816173
0001c0 65 6d 94 bd 1f 54 a7 3d 65 09 87 3d 43 e3 10 3d
       -0.07247428 0.08170342 0.06593589 0.035372984
0001d0 f0 6f 02 bb 93 33 75 bd 04 f4 34 bd 5a 9c f1 3d
       -0.0019903146 -0.059863638 -0.044178024 0.117974
0001e0 4e 1f 2c be 20 78 34 bb 56 54 47 3e d4 c9 26 3d
       -0.16808817 -0.002753742 0.19465765 0.040719822
0001f0 74 11 8e bc e0 73 3f 3e 39 27 5b 3d b0 de eb bd
       -0.017342307 0.18696547 0.053504203 -0.11517084
000200 ee db 42 3c ae 9b b6 3a 4c dd 70 3d be 4b 6e 3e
       0.011893256 0.0013931894 0.058804795 0.23271081
000210 fb 8a 01 be 9f f4 f5 bd e0 a6 68 3e 51 20 a6 3d
       -0.12650673 -0.120095484 0.22719908 0.081116326
000220 ac 96 b3 3d 41 89 22 3e 38 de 46 3e dd a6 f6 3d
       0.08768973 0.1587267 0.19420707 0.120435454
000230 eb c9 29 3d 96 07 31 be 0c 5c f4 bd e2 39 00 be
       0.04145233 -0.1728805 -0.11931619 -0.1252208
000240 49 ff 36 3d c5 fb 15 bd 5e bd 8a 3c 25 e7 35 3e
       0.044677053 -0.03661706 0.016936 0.17763956
000250 6d ce dc 3d bd c2 29 be 1b 93 cb 3d b8 f4 55 3e
       0.1078156 -0.16578193 0.099401675 0.20894134
000260 51 05 3b be 68 61 3f 3c c0 37 03 3e f9 33 3b 3e
       -0.18263747 0.011680938 0.12814236 0.18281545
000270 16 d8 3f 3d 50 31 0b 3e 41 39 44 3c d9 f9 6d 3d
       0.046836935 0.1359303 0.011976541 0.0580996
000280 3b 51 e8 3d 44 f5 97 3d da da 71 3d 34 2f a2 bd
       0.113436185 0.074198276 0.059046604 -0.079191595
000290 df 1d f4 bd 33 78 77 bd 5d a5 6b bb 1e aa 29 3e
       -0.1191976 -0.060417365 -0.0035956718 0.16568801
0002a0 3c a6 33 3e 07 07 80 be 7b d9 1a bd 31 c6 2d 3e
       0.17543882 -0.2500536 -0.03780506 0.16970135
0002b0 21 3e 63 3e 40 33 f8 3d 2b 2e 02 3e a6 88 b8 3d
       0.22191669 0.1211915 0.12712924 0.090104386
0002c0 eb ee bd bd 57 3a 23 be 4b aa b7 bd 85 c6 0e bd
       -0.092740856 -0.15940224 -0.08968028 -0.03485729
0002d0 fa 8d f9 3d f1 1f fb 3d 1b e4 63 3e ca bf 54 3d
       0.12185283 0.12261952 0.22254984 0.051940717
0002e0 b6 d7 22 3e 5a a0 2e 3c 99 29 1c 3d 99 e3 5f 3d
       0.159026 0.010658348 0.038125608 0.054660413
0002f0 f8 40 db 3c 82 84 1d be 14 f3 30 3d e0 dd 87 3c
       0.026764378 -0.15382579 0.043200567 0.01658529
000300 5d f6 1a 3e d9 b3 2f be 64 9b 2c be 4e c4 20 3e
       0.15133043 -0.1715845 -0.16856152 0.15699884
000310 df 76 35 be 12 58 0e 3e af 55 51 bd f8 d7 e4 3d
       -0.17721127 0.13900784 -0.051107105 0.11174005
000320 0b 0d 2c 3e 3f c4 04 3e ae 0d c0 bd 25 64 00 be
       0.1680185 0.12965487 -0.09377609 -0.12538202
000330 00 53 a4 bc eb de ef 3d 03 09 28 3c f4 7f 83 3d
       -0.020059109 0.1171244 0.010256055 0.064208895
000340 c0 76 d9 bc f3 78 5e be 3e cb a4 3d f2 77 ae bd
       -0.026545882 -0.21725826 0.08046578 -0.085189715
000350 09 0d 62 3e 81 a4 75 3d 4e b1 ad 3d e1 ee 4c bd
       0.22075285 0.059971336 0.08481084 -0.0500325
000360 57 01 4f bd b4 9f eb 3c b9 dc 4f bd 7c 18 e9 bc
       -0.050538387 0.028762676 -0.050747607 -0.028454058
000370 24 16 e0 bd 0f d4 bc 3b cc 73 37 be 06 b3 6d bd
       -0.10941723 0.005762584 -0.17915267 -0.05803206
000380 f6 2c 36 3e 7f 03 59 bd ad 69 d7 3d f8 e9 82 3d
       0.17790589 -0.05298185 0.10518203 0.06392282
000390 3d 2e 2d 3e e9 33 9e 3d 8f 1c cc bd ae 56 ae bd
       0.1691217 0.07724745 -0.099663846 -0.085126266
0003a0 2f 83 3c be 71 ea 4e 3c 92 97 0a be c3 36 9f bd
       -0.18409418 0.012629137 -0.13534382 -0.07774117
0003b0 19 fe 39 ba 01 f5 17 3e 1d 16 26 bd 8e 71 45 be
       -0.00070950534 0.14839555 -0.040548433 -0.19281599
0003c0 8e 5b 38 3e 5f ae 0d 3e a5 30 27 3d 29 5c 17 3e
       0.18003675 0.13836049 0.040817875 0.1478125
0003d0 e3 a0 cf 3d 53 e4 2a 3e 04 e1 26 3e b5 b7 d5 3d
       0.101381086 0.16688661 0.16296774 0.1043543
0003e0 66 52 22 be 5b 57 1a 3e c5 a4 07 3e eb 57 58 bc
       -0.15851745 0.15072386 0.13246448 -0.013204555
0003f0 9f 44 60 3e 40 fb 34 be 20 d7 4f 3e 7e 84 19 bd
       0.21901177 -0.1767397 0.20296907 -0.03747987

fc_layers.1.bias f4 [15]
000000 98 66 d0 3c a5 42 8f 3d e6 d4 32 3d 88 50 58 bd
       0.025439546 0.06995133 0.043660067 -0.052811176
000010 32 21 24 bd bc c8 50 3d 00 bf e3 39 3a f2 51 bd
       -0.04007072 0.050972685 0.0004343912 -0.051256396
000020 52 2e 39 3d 22 01 a8 bd e9 03 67 3d 50 11 fa bd
       0.04521019 -0.08203341 0.056400213 -0.12210333
000030 df 08 7d bd 97 03 1d be 92 d9 98 3d
       -0.06177604 -0.153334 0.07463373
