proj5/proj5_code/trained_SimpleNetFinal_final.pt (torch, 819511 bytes, 18 tensors)

conv_layers.0.weight f4 [10, 1, 5, 5]
00000000: 3d3a 38be 5d94 a8bc 137b 1dbb 0228 e33d
00000010: 999c c53d 9290 203c 9d6b 9fbd 3dc2 e9bb
00000020: 2213 8abd 9d23 273e bef2 5abd 8113 efbd
00000030: 2547 0cbd 74a3 1e3e 2532 f03c 46e9 18bc
00000040: 8353 09be e359 883d f8df ae3c 2389 ce3d
00000050: 29d4 dcbd 548d 20bd 868e babd 2b9d 823d
00000060: 8ed0 033e 640d d73d deae bcbd a529 823d
00000070: b0a1 6bbc 2c08 b7bd 79e0 d63d d7f0 013d
00000080: 863e 8c3d 79f8 0a3e 2f8c eebc 1248 823d
00000090: 2126 79bd fc30 7cbd 8475 2dbc 8828 68be
000000a0: 23d4 7e3d 6d34 a5bc 9dec da3d ddb2 f43d
000000b0: 31ea 65bd fa3c ff3d 7087 1fbe 8694 94bc
000000c0: 8566 d13b 0bd9 0fbe 19fd 233d b2a9 2b3c
000000d0: 7faf 92bc d550 5c3c 521f 023d 5a35 193d
000000e0: 8a02 583d 2495 643c 2860 e53c d933 673d
000000f0: 20cb 553d ef11 143d 1cc1 b1ba 058c b63c
00000100: 3db3 103d 938f 2b3d d217 1e3c 6237 66bc
00000110: d25b 483a f1a9 553c ee6d c43c 7f7f ef3c
00000120: 90fb 7fbb c71f fd3b 1784 a03b 9b6e 1b3d
00000130: 10e5 28be e501 903d 4ac0 0ebd dfab b83d
00000140: afc4 d0bd 4374 223e 113f 9f3c ff12 52be
00000150: b3cb 003e 3384 853d 1cb5 373d befd 323e
00000160: 6710 0bbe 2c32 24be 2631 1f3e 0984 5ebe
00000170: e89c ebbc 7a7c d43c 11cb 963d d6c5 11be
00000180: dc75 c43d 7c99 81bd d0cf 343e 2956 dbbd
00000190: 52e3 1e3d d499 793c ab70 3b3d b0a0 0bbd
000001a0: 28f3 e33c be0d e0bc 5c7d 4abe 8bf8 193e
000001b0: 5dd2 f0bd 4179 debc ac9c 043d 79c7 3a3c
000001c0: 6b72 1f3e bbda b2bd 428c a43d 2690 093c
000001d0: 4db6 20be b1e9 bd3d 88f5 92bd be95 2abd
000001e0: 5c31 8e3d fd1c f2bd c93d 243e b015 8ebc
000001f0: 045f 10bb 2ad8 5bbd c123 18be b9d6 55bd
00000200: 000d 9fbd 10cd 0cbe 090d 14bc 2046 a83c
00000210: 4e3f e7bd aee5 b5bc 32f9 5fbc f89e 183d
00000220: 073b 033b 2dbc 4fbc 5354 2dbd 92a4 043c
00000230: 618e 5bbb 82af 943c 9e8c 303d 6932 7e3d
00000240: 2696 3c3d 53b7 223d 335e ed3d fc9a 053e
00000250: 7c4f 7e3d 982e cf3d 3c00 e7bd 4baf 18be
00000260: 1bda 8a3c 15af 223c 2e4b 50bd 8b3d 1d3c
00000270: 3482 083e 858e 3b3e 1393 39be bf27 0fbd
00000280: 163e e73d ba99 be3d 7dd1 7dbb 0f6f 503e
00000290: f556 053e 7a51 abbd 2541 433b e635 c6bd
000002a0: 19ab 2b3e cc3d 5fbd f264 913d b7e9 e5bd
000002b0: 0dd3 dcbd 4ed4 37be b3c7 eb3c 774c dabc
000002c0: 20db bb3d 32ed 803d a667 58bd 8cf7 abbd
000002d0: 1509 6d3d c046 463c bb2a 09bd 6dbe 55bd
000002e0: 2843 96bc 517d 3f3d 2910 9abc 892e 38bd
000002f0: 3f70 35bc 6b55 81bc 9e31 49bc c3eb 08bd
00000300: f56d 35bd 4735 39bc 00fa d5bb 544a a3bc
00000310: 8063 7cbd ca8b 37bd 256f a1bc 050c a8bc
00000320: f4d9 893d e82c a93d f2ef 16bd 15a6 c03d
00000330: a12e debc e875 193d b87e 343c e9d7 68bd
00000340: 9af3 f73d e439 9bbc 4c84 9c3d fa5b f53d
00000350: 336a c03d e306 7d3d 1981 a53d 2b7c debc
00000360: c475 90bd 1f59 41bd aa12 d33c 9a9c 8ebd
00000370: 86a8 00be 3dbd fabd c5b8 2dbe 511a 89bd
00000380: c1f1 e4bd 6127 09be 972e 33bd 2558 003c
00000390: 17ac 0dbe 2b2b 573d 8c0a 13be fd15 4c3d
000003a0: af19 dabd f2e4 2d3c 57b7 18be 7631 0dbe
000003b0: 3049 453d 00ec 393d c63f c13d 1c93 c33b
000003c0: 6e11 c2bd c85e 543d 6ba8 bcbd 0c34 b03d
000003d0: 5236 bc3c 46f2 f53d 09c1 b33d 8e1f 2f3e
000003e0: 2f55 0abb 4fb4 333e
-0.17990966 -0.020578558 -0.0024029657 0.11091615 0.09649009 0.009800093 -0.077841975 -0.0071337507
-0.067419305 0.16322179 -0.053454153 -0.11673642 -0.034247536 0.1549204 0.029320786 -0.0093329605
-0.13410763 0.066577695 0.021347031 0.100847505 -0.10782654 -0.03919728 -0.091092154 0.06377634
0.12872526 0.10500601 -0.09213041 0.06355599 -0.014381811 -0.089371055 0.104920335 0.031723823
0.06847863 0.13571347 -0.02911958 0.063614026 -0.06082738 -0.061570153 -0.0105871 -0.22671711
0.062214028 -0.0201666 0.10689662 0.11948178 -0.056131545 0.12462802 -0.15579009 -0.018137228
0.006390395 -0.14047639 0.040036295 0.01047747 -0.017905949 0.013447006 0.03176815 0.037404396
0.052736796 0.0139515735 0.027999952 0.05644593 0.05219567 0.036149915 -0.0013561579 0.022283563
0.035327185 0.04188497 0.009649234 -0.01405129 0.0007643077 0.0130410055 0.0239782 0.0292356
-0.0039059855 0.0077247354 0.004898559 0.03794728 -0.1649363 0.07031611 -0.03485135 0.09017157
-0.101937644 0.15864663 0.019439252 -0.20515059 0.12577705 0.065193556 0.044850454 0.17479607
-0.13580476 -0.16034764 0.15546092 -0.21730055 -0.028761342 0.025938261 0.073629506 -0.14235625
0.095927924 -0.06328103 0.17657399 -0.10709793 0.03879101 0.015234429 0.045761745 -0.03408879
0.027825907 -0.027350303 -0.19774383 0.15036218 -0.117588736 -0.027157428 0.032375976 0.011400097
0.1557099 -0.08733126 0.080345646 0.008396184 -0.15694542 0.09273089 -0.071757376 -0.04164671
0.06943008 -0.11821935 0.16039194 -0.017344326 -0.002202929 -0.053672947 -0.14857389 -0.05220673
-0.077661514 -0.137501 -0.009036311 0.02054125 -0.11291371 -0.022204246 -0.013670253 0.03726098
0.0020024197 -0.012679142 -0.042316746 0.008095877 -0.0033501612 0.018150095 0.043102853 0.062059794
0.04604163 0.039725613 0.11590233 0.13047403 0.06208752 0.10116309 -0.112793416 -0.14910619
0.016949704 0.009929438 -0.050852947 0.0095971925 0.13330919 0.18316086 -0.1812251 -0.034950014
0.11291139 0.09306665 -0.00387296 0.20354865 0.13021453 -0.0836515 0.0029793468 -0.09678249
0.16764487 -0.054502293 0.07099332 -0.11226218 -0.10782442 -0.17952082 0.028781747 -0.02664779
0.09172654 0.062952414 -0.05283322 -0.08396825 0.05786999 0.012101829 -0.033488017 -0.052183557
-0.01834257 0.04675037 -0.018806534 -0.044966254 -0.011074125 -0.0157878 -0.012279896 -0.033427965
-0.044294316 -0.011304206 -0.0065300465 -0.019932903 -0.061618328 -0.044811048 -0.019706318 -0.020513544
0.067310244 0.08260518 -0.036849923 0.09406678 -0.027121844 0.03746596 0.01101654 -0.056846533
0.1210701 -0.018948503 0.07642421 0.11980434 0.09395256 0.061774146 0.08081264 -0.027158817
-0.07053712 -0.047204133 0.025765736 -0.06963463 -0.12564287 -0.122431256 -0.16965015 -0.066944726
-0.111789234 -0.13393928 -0.043745603 0.007833515 -0.13835178 0.052531403 -0.14359492 0.049825657
-0.1064943 0.010613667 -0.14913689 -0.13788399 0.0481655 0.045391083 0.09435992 0.0059684645
-0.09475981 0.051848203 -0.09211811 0.08603677 0.02297512 0.120091006 0.08777053 0.17101881
-0.0021107902 0.17549251

conv_layers.0.bias f4 [10]
00000000: 52c9 74b9 6d66 063a 7f8e 10b7 c592 50ba
00000010: dcf7 1e3a a465 c937 5982 aab8 fd40 e6b7
00000020: 9447 40b9 25da 2cb8
-0.00023344651 0.0005126957 -8.616246e-06 -0.00079564407 0.00060641556 2.4008397e-05 -8.130511e-05 -2.74484e-05
-0.00018337212 -4.121116e-05

conv_layers.1.weight f4 [10]
00000000: ddca 353f a223 2b3f e703 0a3f a873 563f
00000010: b82c 193f a91e 0d3f 6f9a 373f b58d 0f3f
00000020: d157 0a3f a83f 083f
0.7101267 0.66851246 0.53912205 0.8377023 0.5983386 0.5512491 0.7172002 0.560756
0.5404025 0.5322213

conv_layers.1.bias f4 [10]
00000000: 41f0 78bd 855c 22bd 4482 24be b19c 3dbd
00000010: 3641 a0bd 6d4c 98bd 5b9d b4bc d081 06be
00000020: df3d 17be 1c47 b8bd
-0.060776 -0.039639015 -0.16065317 -0.04629201 -0.07824938 -0.07436452 -0.02204769 -0.13135457
-0.14769696 -0.08997938

conv_layers.1.running_mean f4 [10]
00000000: d988 8c3a 0352 b43b 7b03 f23b 4d39 70b5
00000010: 647e 84ba 1911 e4bc b9bc 413b a66b b73a
00000020: 73bb bd3c f52b cebc
0.0010721936 0.0055029406 0.007385669 -8.949035e-07 -0.0010108468 -0.027840184 0.002956195 0.0013993874
0.023160672 -0.025167445

conv_layers.1.running_var f4 [10]
00000000: f3af cf3d 82d6 2b3d 2d67 523e c325 113c
00000010: e483 213c af44 cb3d 9d59 093d c627 f53d
00000020: 11e2 b93d e149 c63d
0.101409815 0.041952617 0.20547171 0.008859101 0.009858105 0.0992521 0.033532728 0.11970477
0.09076322 0.0968206

conv_layers.4.weight f4 [60, 10, 5, 5]
00000000: 0c74 dd3c fe34 b83c 3ddf 893d 762a 383d
00000010: 1669 6bbc a32c 2abb 7f67 16bc d66f 323d
00000020: 52f7 733c d46a 11bd 048a bf3a aecc 2abc
00000030: 8700 273d 56a5 3d3b 751e 20bd 47f9 ba3c
00000040: ba27 04bb 65f5 1d3d cb28 c83c 8822 9fbc
00000050: 1945 eb3c cdc0 743c a6a8 233d 5e1f 153d
00000060: d03d 91b8 4ca7 2fbb f849 2e3c 3d98 13ba
00000070: 56b5 3a3c 8040 b23c c417 9bbc 6493 22b8
00000080: 64f0 8ebc f649 073b 6bbf 943c e698 82bc
00000090: 0405 613b d417 8dbc 13d4 293c d069 183c
000000a0: 6548 673b d992 4b3c ce88 4fbc 786b 183c
000000b0: 2dec 0c3c f517 993b 3d43 663c 4a82 24bb
000000c0: d7bf 763c 401f 0d3d 3fb6 c4bc 1163 afbc
000000d0: eb41 8ebc 12cd c1bb 4fd5 88bb 10f8 e9bc
000000e0: a630 cfbc 62cf a1bc f892 52bc 5cd4 68bc
000000f0: 05f5 b3bc b3e7 a3bc e6a5 59bc 8548 1dbc
00000100: c44d 68bc 49a7 72bc 5962 5cbc b7e0 02bc
00000110: ba5d 8cbb 8648 12bc 7524 efbb d5ed d0bb
00000120: 2fc1 11bb b651 703b 86fb 8039 c9d4 e23c
00000130: 03a4 0e3d ea47 803c c671 443b f7fb 0e3c
00000140: e985 49bc d84e ac3b acb2 01bc 40fd c4bc
00000150: 1e35 2b3b 47ff f33b 5b55 8fbc 8548 45bc
00000160: f620 443b 4e87 c0ba e8b1 7a3c e501 eaba
00000170: be59 7dbc 8ba0 6fb9 9906 c53b ba4c 153d
00000180: 930b cc3b 8d9c 853b e4f4 903c e6f0 cf3c
00000190: ee19 99bc 544f 02bc bbc7 a8bc 42a5 8dbb
000001a0: 3148 e7bc bd2a 9bbc e701 7abc 4983 f8bb
000001b0: acf6 a43b e329 e3bc 54c6 713c 0a14 0f3b
000001c0: e662 053c e9b6 723c abfd acbb c955 123d
000001d0: 0877 853c 5420 05bb 2b1a d93c 8a70 563c
000001e0: 0c04 e33c 660d e03b 1cfe 1cbc 5d2a 4c3c
000001f0: 3294 393c fbb2 2fbc 28dd 6bbc 8ffb 80bc
00000200: 5e89 13bc 824a 8bbc 9629 ffbc 86fe aebc
00000210: 92d9 a1bc 0929 4dbc 077c bdbc 8004 cebc
00000220: f0b1 b5bc 445f a7bc 62e0 12bc a2fc 89bc
00000230: 99fe 72bc 84f7 17bc 17a0 66ba a3cd 893b
00000240: e353 4f3b 5b5a ecbc 6a24 b2bc 993c a6bc
00000250: dd04 1fbc 1fd0 48bc 0c5f d23c 53ee db3c
00000260: cbe5 133d afa9 c43c 618e d63c a0c1 973c
00000270: c0ce d03c 631a d13c 5641 743c 280f bb3c
00000280: 8a12 41bc 3f00 213c d1f8 a13c b20f 9e3c
00000290: 136b ed3b 7448 7bbc 11d8 6dbc 742c a2bc
000002a0: 9f9b 5dbc 58a8 0ebc 0a63 f8bb 28cd 9abb
000002b0: 819e 4ebc c8f9 22bc e521 82bb 3911 bbba
000002c0: 6f59 8abb 2af7 e5bb 6d7d 3fbc 6c0c fdba
000002d0: abd0 96bb 2a6c 97bb 3417 21bc eca1 54bc
000002e0: f898 c339 4218 2ebc 7486 9fbb 962d edbb
000002f0: 75a0 2bbc 945c d7b9 5293 3abc dcc1 19bc
00000300: 3040 39bc 6078 62bc b4f6 09bc a4a1 73bc
00000310: 6ba5 95bc f04a 57bc 8a68 b6bc 522e 3cbc
00000320: bdb6 c5bb 84ac a0bb 37b3 87bb b848 2e3a
00000330: 1605 223c d4b4 0ebc 36ed 09bc f625 b9bb
00000340: 55e7 923b 2716 8d3c a13c ddbc d203 cebc
00000350: ba4d 82bc 93fe 1ebb fcc5 b1ba c790 16bd
00000360: e3bc 01bd 16ab f3bc 0858 b7bc cb63 89bc
00000370: d6fd dabc 22ac 0bbd 0b3d 06bd b243 90bc
00000380: eb4b 9dbb f987 2b3c 4ea9 d6bb a4a5 e8bb
00000390: 3c91 163b a14a eebc e8f8 73bc 91d6 4fbc
000003a0: 2616 cdbb 3a8b a4b8 1662 0cbd 4ca3 2ebc
000003b0: 0654 25bc 92ae 6dbb 83d5 b23b 8c2d cfbc
000003c0: b4ca 7e3b d48b dbba d2f7 503c 4c68 ab3c
000003d0: c583 00bc 6a59 50bc 81af 43bc a983 0ebc
000003e0: 0bda 81ba 91ab 98bc d223 173c 5676 0f3d
000003f0: e8a3 9e3c f343 3dbc 98d1 783d 1786 403d
0.027032875 0.022486206 0.067320324 0.04496237 -0.014368316 -0.0025966547 -0.009179949 0.043563686
0.014890509 -0.03550227 0.0014613275 -0.010424776 0.040771987 0.002893766 -0.039091546 0.022823943
-0.002016528 0.038564105 0.024433514 -0.019425645 0.028719472 0.014938545 0.039955758 0.036406867
-6.925652e-05 -0.0026802598 0.010637753 -0.000563029 0.011395773 0.021759272 -0.01893223 -3.8761078e-05
-0.017448612 0.002064345 0.018157681 -0.015942048 0.0034335265 -0.017223276 0.010365504 0.009302571
0.0035290953 0.012425148 -0.012666894 0.009302966 0.008601231 0.0046720454 0.014054117 -0.0025102072
0.015060387 0.03445363 -0.024012683 -0.021409543 -0.017365417 -0.005914339 -0.004175819 -0.028560668
-0.025291752 -0.019752208 -0.012852423 -0.014210787 -0.02196742 -0.020007944 -0.013284182 -0.00959981
-0.014178697 -0.014810392 -0.013451182 -0.0079881465 -0.004283634 -0.008928424 -0.007298047 -0.006376008
-0.002224039 0.0036669797 0.00024601462 0.027689354 0.034824383 0.015659291 0.002997504 0.008727065
-0.012299993 0.0052584223 -0.007916134 -0.02404654 0.002612419 0.007446203 -0.017496755 -0.012041216
0.0029926873 -0.0014688761 0.015301205 -0.0017853348 -0.015463291 -0.00022852623 0.0060127494 0.036450125
0.0062269657 0.0040775 0.017694898 0.025383424 -0.018689122 -0.007953484 -0.020603051 -0.004322679
-0.028232666 -0.018941278 -0.015259243 -0.00758401 0.0050342884 -0.027729934 0.014756758 0.0021832013
0.008141255 0.014814117 -0.005279263 0.035726342 0.01629211 -0.0020313459 0.026501736 0.013088355
0.02771189 0.0068375347 -0.009582069 0.012461272 0.011326836 -0.010723825 -0.0143959895 -0.015744952
-0.009004919 -0.017003302 -0.03114776 -0.0213616 -0.019757066 -0.012521991 -0.02313043 -0.02514863
-0.022179574 -0.020431168 -0.00896463 -0.016844098 -0.014831209 -0.009275321 -0.0008797659 0.004205422
0.0031635694 -0.028851679 -0.02174588 -0.020292567 -0.009705749 -0.012256651 0.025680088 0.02684704
0.03610782 0.024006693 0.026190938 0.018524945 0.025489211 0.025525277 0.014908155 0.022834376
-0.011784205 0.009826719 0.019771965 0.019294593 0.0072454303 -0.015337098 -0.014516846 -0.019796588
-0.0135258725 -0.008707128 -0.0075801658 -0.0047241636 -0.012611032 -0.009947248 -0.0039713257 -0.00142721
-0.004222087 -0.0070179896 -0.011687619 -0.001930607 -0.004602512 -0.0046210485 -0.009832192 -0.012978058
0.0003730727 -0.010625901 -0.004868323 -0.0072381003 -0.010475268 -0.00041076972 -0.011387663 -0.009384599
-0.011306807 -0.013822645 -0.008420635 -0.014870081 -0.018267354 -0.013140425 -0.022266645 -0.011485653
-0.006033747 -0.004903378 -0.004141237 0.0006648409 0.009888908 -0.008710105 -0.008418372 -0.0056502772
0.0044831433 0.017222477 -0.02700645 -0.025148306 -0.015906204 -0.0024260625 -0.0013563032 -0.036759164
-0.031674277 -0.029744666 -0.022380844 -0.016771218 -0.026732367 -0.034099706 -0.03277306 -0.017610405
-0.00480031 0.01046943 -0.0065509444 -0.007099824 0.002297475 -0.02908832 -0.014890887 -0.012685434
-0.006258744 -7.846062e-05 -0.03427323 -0.01065905 -0.0100908335 -0.0036267382 0.0054575815 -0.025290273
0.0038878145 -0.0016750046 0.0127543975 0.020923756 -0.007843916 -0.0127166305 -0.011943699 -0.008698382
-0.0009906901 -0.018636497 0.009224849 0.035024963 0.019365266 -0.011551845 0.06074676 0.047002878

conv_layers.4.bias f4 [60]
00000000: 064b 5cb4 90b5 7bb4 a2c1 0b35 6e68 8235
00000010: 7c72 0bb6 3cf7 72b6 879c 8d35 9a8c 8334
00000020: f8a6 ed34 5a6b 9cb5 9432 8ab6 a6be 4135
00000030: 25ea e5b5 3ee5 4336 f98d 0836 e6ff e3b6
00000040: cb44 f035 1aa1 b335 707f 3836 3d0a 5eb5
00000050: e161 1736 3af8 bc35 5c71 f533 2622 d7b5
00000060: e897 e3b5 9ae1 dcb5 305a aeb5 16ab 18b7
00000070: 90de 4f37 cafc c335 b019 a4b6 5420 c6b5
00000080: bdc9 96b5 226b ceb6 b889 80b4 576d 2035
00000090: 022a 2137 a10a 37b6 866f ef35 c077 5b33
000000a0: f600 f0b4 89fa 2e35 3b60 13b5 bb69 31b5
000000b0: bb60 9437 a939 9237 25d2 0935 0ad2 1635
000000c0: 468e e335 822c ffb5 254a aab5 e53f c236
000000d0: 5ea4 3835 1d7d 2ab6 db72 5f35 a351 1836
000000e0: 6c3b f135 ec66 8035 4c6e 6335 b42b 2cb5
-2.051639e-07 -2.3442249e-07 5.206331e-07 9.716148e-07 -2.0779253e-06 -3.620472e-06 1.0550874e-06 2.4502953e-07
4.4266176e-07 -1.1654149e-06 -4.1186086e-06 7.217553e-07 -1.7129975e-06 2.91907e-06 2.0348218e-06 -6.7949177e-06
1.7901415e-06 1.3383426e-06 2.7492315e-06 -8.2716343e-07 2.2557726e-06 1.4079335e-06 1.14293215e-07 -1.6028687e-06
-1.6957028e-06 -1.6456936e-06 -1.2990258e-06 -9.09974e-06 1.2389981e-05 1.4602203e-06 -4.8905713e-06 -1.4761558e-06
-1.1234584e-06 -6.1517503e-06 -2.3942061e-07 5.9763755e-07 9.6061285e-06 -2.7275312e-06 1.7839345e-06 5.1098823e-08
-4.4704183e-07 6.518463e-07 -5.49018e-07 -6.6091496e-07 1.7688018e-05 1.7431406e-05 5.134228e-07 5.6185e-07
1.6954225e-06 -1.9011934e-06 -1.2687566e-06 5.789089e-06 6.878453e-07 -2.54048e-06 8.324111e-07 2.2697284e-06
1.7973193e-06 9.566697e-07 8.4724593e-07 -6.413859e-07

conv_layers.5.weight f4 [60]
00000000: 7bd5 b53e ba11 193f 03aa 0f3f 3c57 dd3e
00000010: c166 e43e 6934 ea3e ee40 ba3e b743 a13e
00000020: 22c1 dc3e e04f eb3e f1fa d43e e3a7 f03e
00000030: f212 df3e 2e56 e93e ddf9 d83e 7ddd aa3e
00000040: 0b82 103f 4f59 ef3e 830c cc3e a822 d43e
00000050: 9c04 dd3e 3cf9 b73e 03c5 bb3e 355d d23e
00000060: a713 fe3e 6526 fb3e 62e8 113f 1dc8 eb3e
00000070: a58e 103f 6324 f23e d1dc 083f 52be f43e
00000080: cc0b f23e 6657 733e af23 e33e ce95 d83e
00000090: e217 fe3e 81a1 0d3f 4f13 1f3f d6d2 b63e
000000a0: c587 b53e 06c6 eb3e b530 d93e 9d93 f23e
000000b0: d390 013f b76a f23e b78f bb3e 0c0b f53e
000000c0: 8d15 dc3e 085c 0e3f e5d6 983e 2562 133f
000000d0: f64a ad3e 1628 e63e 14e5 983e 1b92 a83e
000000e0: ce03 a73e 8204 003f b2a7 083f 6fc7 c73e
0.35514435 0.59792674 0.5611879 0.43230617 0.44609645 0.4574311 0.36377662 0.31496975
0.431161 0.45959377 0.41597703 0.47003087 0.43569142 0.45573562 0.4237813 0.33372107
0.5644843 0.46747825 0.39853296 0.4143269 0.4316758 0.35932338 0.36673746 0.41086736
0.4962437 0.4905273 0.56995213 0.46051112 0.5646766 0.47293386 0.5346194 0.47801453
0.47274625 0.23763809 0.44363162 0.42301792 0.49627596 0.5532456 0.6213884 0.3570773
0.35455146 0.46049517 0.42419973 0.47378245 0.5061161 0.47347042 0.36633083 0.4785999
0.42985192 0.5560918 0.29851452 0.5757163 0.33846253 0.44952458 0.29862273 0.3292397
0.3262009 0.5000688 0.5338088 0.39019343

conv_layers.5.bias f4 [60]
00000000: 0898 96bc 24da b93b 5aed 363d 0a3a 28bd
00000010: 5fc5 78bb 8672 953c c061 85bc 2ed7 9bbd
00000020: e9a8 1fbd 193b 7bbd 47d6 51bd f8f2 ddbc
00000030: 3c43 78bd 63db 96bd 496d 98bd 88ff fabc
00000040: f039 54bd 94a2 34bd c811 dbbb 7558 5cbc
00000050: 8de0 e8bc ae6a 48bd d91e 2bbd 3f2d 01bd
00000060: 5f76 4a3d 909e 5abd bacf 073b de62 993c
00000070: 3aed a73c c536 6ebd 29c3 0d3c 616f 21bd
00000080: d089 7cbd 220f 2cbc 06b3 8bbd d125 15bd
00000090: 99c7 10bc b72f 27bd c93b f33c ad86 46bd
000000a0: 29d0 45bd 6142 493c f378 e8bc 1dc4 e1bc
000000b0: 5def d8bc 7bb0 05bc 05cc 2cbd 4260 efbc
000000c0: 0424 14bd 7b88 82bd 029c 15bc f3b6 afbc
000000d0: 2a8c bebc 9ee7 92bb 372f 9bbd 7328 78bd
000000e0: adf2 68bd fbb3 70bd 350d 53bd 0777 24bd
-0.018383041 0.0056717563 0.04465995 -0.041070975 -0.003795944 0.018243086 -0.016281962 -0.07609402
-0.038979445 -0.061335657 -0.05122974 -0.027093396 -0.060610995 -0.073660634 -0.074427195 -0.030639425
-0.051813066 -0.04410036 -0.0066854693 -0.013448824 -0.028427387 -0.048929863 -0.041777465 -0.03153729
0.049429294 -0.053373873 0.002072318 0.018723901 0.02049886 -0.0581577 0.008652487 -0.03941286
-0.061654866 -0.010501655 -0.068212554 -0.036413018 -0.00883665 -0.04081699 0.029691594 -0.04846828
-0.04829422 0.012283892 -0.028377986 -0.027559334 -0.026481325 -0.008159752 -0.042186756 -0.029220704
-0.03616716 -0.06373688 -0.009131433 -0.021449542 -0.023260195 -0.0044831773 -0.07577365 -0.06058545
-0.05687206 -0.058765393 -0.051526267 -0.040152576

conv_layers.5.running_mean f4 [60]
00000000: 9e1c b43d 9511 03bf 51f9 d7be 2818 1bbf
00000010: 1544 433d 2101 25be 5ce9 54bf ac97 01bf
00000020: d195 50bd 6cb9 2abf fa2c 1dbe aaae a7be
00000030: b1dd 9db9 d360 be3e 4d53 1dbf 9d1d 11bf
00000040: 4bfc 53bd c7f0 893e d5f5 11bf 7e0f 82be
00000050: acc6 5fbe 546b fdbe ccb5 5b3d ce59 efbe
00000060: 1087 92be bf61 65bf 753e c1be 0cbd e63e
00000070: 8824 c8be c650 0cbe 876f 823e 11f5 613e
00000080: beba 2dbf bf3d d1be b0b3 37bf d7c9 00bf
00000090: ee33 c3bc 5007 7abe 176a de3c 9fe5 cebe
000000a0: 6bf0 38bf 6067 20be cac3 66be eb09 7f3f
000000b0: b084 993f 9974 843e 048e 2bbf 384d d0be
000000c0: a70d 733c 2090 72be e850 04bf d9c1 fbbe
000000d0: e3d8 55be 3f45 00be 946a 43bf 2117 2abf
000000e0: c4af 69bf 65df 74bf 1f70 e8be 7bae 32bf
0.08794521 -0.51198703 -0.421824 -0.60583735 0.04767235 -0.16113712 -0.8316858 -0.5062206
-0.050924126 -0.6668918 -0.15349188 -0.32750446 -0.00030110547 0.37183246 -0.6145523 -0.5668581
-0.051754277 0.2694151 -0.57015735 -0.25402445 -0.21853131 -0.49495947 0.053640172 -0.46748203
-0.2861867 -0.89602274 -0.37742963 0.45066106 -0.3909037 -0.13702688 0.25475714 0.22066142
-0.6786307 -0.4086742 -0.71758556 -0.50307983 -0.023828473 -0.24416852 0.027150197 -0.40409562
-0.7224185 -0.15664434 -0.22535625 0.9962451 1.1993618 0.25870207 -0.67013574 -0.40683913
0.014834798 -0.23687792 -0.51685953 -0.49171332 -0.20883517 -0.12526415 -0.763345 -0.6644154
-0.9128382 -0.95653373 -0.45398042 -0.69797486

conv_layers.5.running_var f4 [60]
00000000: 9ae4 d23d 901c 7b3e 4e48 7e3e ff4a 843e
00000010: 1e73 0f3e 38d5 063e f7a3 7f3e dfcf 193e
00000020: 5882 263e 4dab 933e 08a5 423e 3bf2 193e
00000030: 31aa 253e 3099 d43d 76d2 a33e 63e5 313e
00000040: 7dbd 603e 885e 293e b878 563e 7ea0 663e
00000050: 20b5 3e3e 6c94 393e cfe1 113e 64e5 4b3e
00000060: 7530 3d3e 433c de3e 944e 363e 5a87 463e
00000070: c531 3b3e 1597 343e ac27 903e 648f dc3d
00000080: 5544 933e a98b 063e 85a7 5d3e b85a 613e
00000090: 7f00 463e b19d 373e ac64 563e 7789 3a3e
000000a0: 01b5 3a3e bbba 0f3e eae1 3e3e d549 c93e
000000b0: 0828 053f eddf 5f3e d4e4 4f3e 375f 4b3e
000000c0: 752a 493e 0fd5 763e 7f9b 4f3e 61b9 713e
000000d0: 0f17 153e 6123 273e 05c1 483e cad1 503e
000000e0: d90b 973e af5a f23e e06a a53e eb07 763e
0.102975085 0.24522614 0.2483227 0.25838467 0.14008757 0.13167274 0.24964891 0.15020703
0.1626066 0.2884163 0.19008267 0.1503381 0.16178204 0.10380781 0.31996506 0.1737266
0.21947284 0.16539967 0.20944488 0.2252216 0.18623781 0.18123025 0.14246295 0.19911724
0.18475516 0.4340535 0.17803413 0.1938757 0.18280704 0.17635758 0.28155267 0.10769537
0.2876307 0.13139214 0.21645935 0.22007263 0.19336127 0.17931248 0.20936841 0.18216501
0.1823311 0.14036076 0.18640867 0.39314142 0.5201421 0.21862765 0.20302135 0.1986054
0.19645102 0.24104713 0.20274161 0.23605873 0.14559577 0.1632209 0.19604881 0.20392528
0.29501227 0.4733481 0.32308102 0.24026458

conv_layers.8.weight f4 [60, 60, 5, 5]
00000000: ca0a 68b1 b46a 83af 6345 f3ae 8765 99ae
00000010: 977b 8fac 0091 f1ae 5fc1 4aac 9453 0b23
00000020: 306b 56aa d67d 6cab bbdb a1b1 9e0d 5eb1
00000030: 155c 8bae 0fc9 06b1 608c 25ad 0156 22b2
00000040: 572b 7cad 36ed 1227 82ae 84b0 7990 4a26
00000050: d7ea bbb0 25c5 9aaf 310e aeac 7737 6eae
00000060: aa12 13ad afce 9bb2 87d1 86b4 b90c aab3
00000070: a2ec bbb3 d132 bcb3 54e0 93b2 9932 0ab3
00000080: 5e5c 49b0 3156 98b1 6c20 48ad 96fc 97af
00000090: c3f6 40ac baee b7b0 94b5 e2b0 aca7 68b1
000000a0: 5ee3 5cb3 9207 d8b1 28b3 33b0 0e5f 00b3
000000b0: 7f2f 51af f013 c2b1 9b06 daaf 91fe 60b0
000000c0: 1d32 95b1 f671 c3b0 a23b 0eb8 ca14 84b7
000000d0: 5b4f 0cb8 0064 46b7 1248 42b7 1a4a 99b7
000000e0: d212 67b8 04e9 1eb7 783f 75b8 c559 6ab7
000000f0: 9780 32b8 c7a6 ccb7 47bb b1b7 9e2c 97b8
00000100: 34a4 cdb7 823a 33b8 88f3 1eb8 c73b 17b8
00000110: 137e 43b8 a78e 00b8 b28d b2b8 325f 9fb8
00000120: 8559 2cb8 d41b f2b8 66ec e7b7 ac77 acae
00000130: ee9a 39aa ca0f 41aa f8a6 04ab 7631 30ad
00000140: 5651 80a9 b04c 62ac 9099 8822 f827 aea3
00000150: 4c9f 0b22 7682 0025 9128 abac b853 2ca0
00000160: e4f1 22ab 49da eea3 c9e5 5eae dfdd 48a4
00000170: 0196 a526 0198 48a4 96d2 3322 cdd3 ada9
00000180: 7f5b 17ac 2609 a9a9 a1cb a224 de46 b126
00000190: 9bd4 42ac aa72 96ab cbff 0b27 6157 44ab
000001a0: 7de0 06ab 4982 4bb1 ef92 54ae 8bc6 a3ae
000001b0: 32f8 faad e110 0cae aa5c 92ae d0d8 bfab
000001c0: 25bb dfac 8f85 c2b1 3da9 edac 10ac 49b1
000001d0: 8fea 67af d5ec 61ac 4d91 11ad c2c3 19a4
000001e0: 9f70 0cb0 97f6 9eab 432f a4ab b575 99ae
000001f0: 9223 8ea7 aa5f 3fb4 d449 3eb1 d85d 27b5
00000200: 424c a9b4 794b a5b5 a0ba 84b3 32e3 9ba9
00000210: 2e9c e3b2 18ea 84b3 d88c b5af d9dc 96b3
00000220: 241e 7faf 27d0 a2b3 fb89 2ab5 4792 7fb0
00000230: a805 5cb5 7707 d2b0 f0a9 2cb5 71ec 8db5
00000240: a79b 98b1 16d0 c1b3 58bb 84b2 ab52 80b3
00000250: 20e5 d7b4 c882 a9b0 5383 8dad d9c2 72ad
00000260: fd80 baaf 5e61 81ab a117 ac26 182b eeae
00000270: a94b 30ad 0b0a 1aae 3aa8 08b0 4eca 1424
00000280: 96b2 91ae 8c79 94ae 7ff3 b7b0 8aa3 79b0
00000290: 623e 89ad d997 65a3 372d 24ab 2aa5 be25
000002a0: ae78 e925 f89d 8e25 f7c5 b6ac 1ac1 74ae
000002b0: 6e8a 98ad 8183 eaae 71ee 5ba7 c4aa 92a9
000002c0: 8d1d 7aab 87b7 d226 c887 b826 e688 4ea4
000002d0: 29ff 9aab f64f b1b0 663f 0aad a8c8 23ad
000002e0: aa3a f7ac 4628 e8ab 8465 44aa 700b 20ab
000002f0: 7164 fe26 694b 3cab 1b30 9aab 4f75 95a3
00000300: 923c 22a8 ff0b 31a4 5666 1822 e556 7926
00000310: f26c faab 5d41 1cac 694e f3a9 ee53 0822
00000320: 49b8 8026 fd84 caac 64a5 2aaa 0106 8fad
00000330: f595 6d26 8714 3fa4 789d d5a2 88d3 2026
00000340: fe32 a725 a96f 2a26 4b46 87a4 7339 0ca1
00000350: c088 8820 b016 8622 6fdc 5b26 4627 06a9
00000360: 9dac a79e 42ea fca3 3c2d d420 d883 4f21
00000370: 9c97 a3a8 4fe4 3127 607c 7ca4 beb5 1fa2
00000380: 9455 c49f 7df8 93b3 14c4 41b4 5d2e 07b5
00000390: e18e 85b4 e330 a8b2 56c0 bdb6 6689 15b5
000003a0: b22b 37b5 d75e c1b3 6661 81b3 6cc9 0db5
000003b0: 1f5f 31b4 8a90 acb5 ce94 03b5 935b b8b2
000003c0: 19ce 8ab4 3d5a 70b3 a1f9 98b2 90f2 a3b3
000003d0: fc48 e2b2 2612 a0b4 f4b2 57b4 fed5 47b2
000003e0: 5fc7 82b2 2141 00b1 9f2a 8ea3 c8fa ae26
000003f0: e9fb 6226 cf40 08ac aa10 3e22 5a23 a69e
-3.3766576e-09 -2.3904578e-10 -1.1062686e-10 -6.9756693e-11 -4.0780257e-12 -1.0985168e-10 -2.881327e-12 7.5529035e-18
-1.9044206e-13 -8.4018675e-13 -4.710697e-09 -3.2312992e-09 -6.337345e-11 -1.9613855e-09 -9.410334e-12 -9.449196e-09
-1.4334165e-11 2.0390163e-15 -9.653862e-10 7.0278625e-16 -1.3672786e-09 -2.8152516e-10 -4.946953e-12 -5.4164197e-11
-8.360127e-12 -1.8138364e-08 -2.5111896e-07 -7.918556e-08 -8.750909e-08 -8.763676e-08 -1.7215065e-08 -3.2176647e-08
-7.3254636e-10 -4.433581e-09 -1.1375883e-11 -2.7646213e-10 -2.7421821e-12 -1.3382853e-09 -1.6495272e-09 -3.3855754e-09
-5.142953e-08 -6.287288e-09 -6.5374417e-10 -2.9888774e-08 -1.9025313e-10 -5.6484097e-09 -3.9658662e-10 -8.1852486e-10
-4.342168e-09 -1.4220507e-09 -3.3910976e-05 -1.5745307e-05 -3.3452507e-05 -1.1825003e-05 -1.1580081e-05 -1.8273528e-05
-5.509222e-05 -9.471787e-06 -5.847166e-05 -1.3968388e-05 -4.2558266e-05 -2.4396357e-05 -2.1187252e-05 -7.208552e-05
-2.4514367e-05 -4.2731415e-05 -3.789694e-05 -3.6056877e-05 -4.660904e-05 -3.0650433e-05 -8.514094e-05 -7.599442e-05
-4.1091367e-05 -0.000115446426 -2.7647427e-05 -7.8429124e-11 -1.6485053e-13 -1.7147321e-13 -4.7127536e-13 -1.0015424e-11
-5.6984514e-14 -3.2159102e-12 3.7025464e-18 -1.8882045e-17 1.8922344e-18 1.1146432e-16 -4.864616e-12 -1.4596667e-19
-5.788965e-13 -2.5896459e-17 -5.0681046e-11 -4.355602e-17 1.1489834e-15 -4.349684e-17 2.4370507e-18 -7.719485e-14
-2.1509181e-12 -7.5066946e-14 7.060126e-17 1.2301051e-15 -2.7687078e-12 -1.0689967e-12 1.942879e-15 -6.975445e-13
-4.7917903e-13 -2.9614446e-09 -4.8333722e-11 -7.44765e-11 -2.853193e-11 -3.1847306e-11 -6.655772e-11 -1.3631544e-12
-6.3588184e-12 -5.661327e-09 -6.7547344e-12 -2.9347156e-09 -2.109266e-10 -3.2105891e-12 -8.274559e-12 -3.33424e-17
-5.109175e-10 -1.1295018e-12 -1.1666019e-12 -6.9785434e-11 -3.9451483e-15 -1.7823064e-07 -2.7690605e-09 -6.234891e-07
-3.1534188e-07 -1.2315423e-06 -6.180676e-08 -6.922795e-14 -2.64973e-08 -6.1893104e-08 -3.3023784e-10 -7.025091e-08
-2.3202823e-10 -7.5815755e-08 -6.3530723e-07 -9.297633e-10 -8.196462e-07 -1.5281633e-09 -6.4322285e-07 -1.0574132e-06
-4.441478e-09 -9.0251135e-08 -1.5452017e-08 -5.975502e-08 -4.021358e-07 -1.2333539e-09 -1.6088164e-11 -1.3799372e-11
-3.3924855e-10 -9.193026e-13 1.1941302e-15 -1.0830642e-10 -1.0021242e-11 -3.5024466e-11 -4.9715576e-10 3.2263743e-17
-6.62556e-11 -6.751852e-11 -1.3384208e-09 -9.0818075e-10 -1.56028e-11 -1.244627e-17 -5.832725e-13 3.3071666e-16
4.0500833e-16 2.4740117e-16 -5.1947296e-12 -5.5650685e-11 -1.7341874e-11 -1.0664448e-10 -3.0521615e-15 -6.5133256e-14
-8.885885e-13 1.4621422e-15 1.2804368e-15 -4.4785087e-17 -1.1013179e-12 -1.2901171e-09 -7.858469e-12 -9.310032e-12
-7.0266752e-12 -1.649577e-12 -1.7443517e-13 -5.685929e-13 1.7652015e-15 -6.689567e-13 -1.095571e-12 -1.6204294e-17
-9.005941e-15 -3.8390918e-17 2.0654017e-18 8.6506993e-16 -1.7793807e-12 -2.2205217e-12 -1.080497e-13 1.8475869e-18
8.931735e-16 -5.75595e-12 -1.5156415e-13 -1.6259884e-11 8.242912e-16 -4.143391e-17 -5.7900492e-18 5.579783e-16
2.9004436e-16 5.9131926e-16 -5.8666e-17 -4.750988e-19 2.312979e-19 3.6344794e-18 7.627963e-16 -2.978804e-14
-1.7753204e-20 -2.7421107e-17 3.594413e-19 7.030882e-19 -1.8162385e-14 2.468745e-15 -5.474914e-17 -2.1644732e-18
-8.3150806e-20 -6.890421e-08 -1.8045858e-07 -5.0358886e-07 -2.4877139e-07 -1.9580005e-08 -5.65503e-06 -5.5706766e-07
-6.82364e-07 -9.004514e-08 -6.024747e-08 -5.28197e-07 -1.6519014e-07 -1.2857065e-06 -4.901784e-07 -2.1462062e-08
-2.585446e-07 -5.5961426e-08 -1.7808647e-08 -7.634401e-08 -2.6343052e-08 -2.9815527e-07 -2.0088538e-07 -1.1631981e-08
-1.5224655e-08 -1.8663473e-09 -1.5413722e-17 1.214165e-15 7.8750903e-16 -1.9362738e-12 2.5758623e-18 -1.7590555e-20

conv_layers.8.bias f4 [60]
00000000: e9e5 baba 3af9 84b9 06de 7434 541b e935
00000010: dcb0 80b0 510a 51b7 10cc 88b5 24ce b1b2
00000020: 3953 8ebb 7b30 7ead 1814 4e3c 3152 89ac
00000030: 673c 80ae 0f46 aeae 9ba1 619d e23c 62b5
00000040: 0a6b fca2 47fd c7b1 98fd 3fae f98a d5b8
00000050: a2ab 88aa 8d5b 83b7 eca3 c2b6 ce2b 6b3d
00000060: 21c2 24a3 fa49 b83c 915d b0b6 5f5e b3bb
00000070: af2a 1cbb e395 07ad 15b3 d0bc 40ff 093d
00000080: 53ae 74bb 27fb 35bb 090d 10a8 f6ff 70bc
00000090: 0364 d0b6 6d12 683d 115c 18bc 7c44 2eb2
000000a0: aef3 04ac 90e8 9db1 674d 023d 073f 09ac
000000b0: 5c10 02bd a7b6 a2bc c673 87ab cebd 17bb
000000c0: 128e 9eac 2d17 9aac 0e40 31ae bf71 a0bb
000000d0: 0a55 3bb8 93b8 f7b2 f941 2ba6 8619 c8b0
000000e0: c5aa 31ad f0c3 55b1 5fbf 08ac c24e 9ebb
-0.0014259192 -0.0002536269 2.2805042e-07 1.7367806e-06 -9.363492e-10 -1.2459773e-05 -1.019218e-06 -2.0699254e-08
-0.004343417 -1.4448993e-11 0.012578033 -3.9028993e-12 -5.831496e-11 -7.925049e-11 -2.986205e-21 -8.4280157e-07
-6.841807e-18 -5.8204566e-09 -4.365361e-11 -0.00010182517 -2.4277547e-13 -1.5659049e-05 -5.8007336e-06 0.057414822
-8.931566e-18 0.022496212 -5.2561013e-06 -0.0054738964 -0.0023829152 -7.707143e-12 -0.025476018 0.03369069
-0.003733535 -0.0027768107 -7.996432e-15 -0.014709463 -6.210526e-06 0.056658197 -0.009299294 -1.01437045e-08
-1.8893598e-12 -4.5957407e-09 0.031812098 -1.9503858e-12 -0.031753883 -0.019862486 -9.62446e-13 -0.0023153904
-4.506403e-12 -4.3795163e-12 -4.0302033e-11 -0.004896372 -4.4663473e-05 -2.883852e-08 -5.941695e-16 -1.4559169e-09
-1.0099204e-11 -3.1106957e-09 -1.9432995e-12 -0.004831166

fc_layers.0.weight f4 [100, 960]
00000000: 2abf 3033 d9a6 fb31 f2b7 d030 b35a e530
00000010: 9c0e 7c32 46d4 9931 4841 6530 3a87 5f30
00000020: e88a 6a32 c64c 0330 146c 0731 4cfc 082f
00000030: 0f75 f831 662d f630 7e6a 3c31 2167 5130
00000040: fe5d 1cb4 7152 8633 e30e bb33 7e75 0d32
00000050: 4b0f ea31 aeb3 d4b2 024e 3031 4276 9532
00000060: b06e 25b3 2507 39b1 00aa c42d 08b6 8830
00000070: 1730 8e32 770c a332 83dd 3a32 88c3 1932
00000080: c070 69b3 583b 70b3 2ba6 86b3 f7c3 05b3
00000090: 5d58 5db3 58c6 7cb3 acba 7db3 9a98 6fb3
000000a0: fecf 65b3 0af0 6db3 6407 7db3 b8e8 77b3
000000b0: 4221 3eb3 6f64 88b3 4fa8 43b3 586a 21b3
000000c0: c8bb 00b6 5e62 f0b5 cfec 92b5 deea a134
000000d0: 26c9 0cb6 649c b4b5 7570 04b5 8481 31b5
000000e0: 507e 11b6 eee9 a2b5 de9f 31b5 3e9e 80b5
000000f0: 4157 dcb5 45f3 feb5 b8a1 b3b5 3134 8eb5
00000100: 7013 7295 13ce 9f1d 1ab2 639a df36 bf18
00000110: 3c03 1413 4c7e 319b ac76 3595 196c c518
00000120: c6fa 379c dc51 ae9a 8360 809c 1f5b 2696
00000130: 5dbd 6496 590a 6996 bae0 0095 0388 8f95
00000140: 7dd3 08a1 d0f9 b922 1858 c122 8532 0c23
00000150: 0437 07a4 5cb0 1ba2 fc4d 4222 3b25 a322
00000160: 9b82 0ba1 192a 2d1f a027 891e a257 5c1f
00000170: 3ea4 381d 3a63 0aa4 1b8b 84a4 b550 f79d
00000180: c876 ebb3 12e7 dab3 fba9 d7b3 7e4b c8b3
00000190: cf86 d7b3 fee1 b0b3 df8e b4b3 84d4 dcb3
000001a0: 9fb2 10b4 5f21 17b4 ea2b 1bb4 4355 2cb4
000001b0: 00be 3cb4 8d72 32b4 0bb0 2db4 10a3 27b4
000001c0: 0e01 33b1 a80b 33b1 b6a4 19b1 b362 d1b0
000001d0: fd38 0db1 7b17 1bb1 031d 0ab1 3625 18b1
000001e0: d748 29b1 6242 32b1 dc85 23b1 d6f9 28b1
000001f0: c3cc 71b1 3e35 20b1 7e04 0cb1 d66f 1db1
00000200: 68f3 c93a de8f bf3a 3798 ac3a 2a15 cf3a
00000210: 886f 433a 5e7a 843a 027e cf3a 181d e13a
00000220: 7fd7 0f3a a400 203a 7a7c ac3a 7e9e a53a
00000230: cc6c 963a 5a7e 863a 9d47 a83a 24d3 d63a
00000240: e31f 0a26 7eb8 59a3 dd0d eea3 0683 50a6
00000250: 965a 5326 ab26 5d27 5f9c 0ea4 c799 7f27
00000260: 7e2b d5a3 075c ce27 b358 4827 d600 4b24
00000270: a5cd 3ca5 946d 0927 fd7e 8027 993b cc28
00000280: d470 8bbc 5e6f 55bc 548e 2abc 78b6 acbc
00000290: 35ad 47bc b20e 37bc ea0c 2dbc f1af 15bc
000002a0: 8407 f63b 2163 963c 6fef d53b 7ec4 663b
000002b0: 5981 ee3c bbb1 163d 930e b83c f68c c83c
000002c0: 9045 25a9 d485 9d26 555a e329 1478 2429
000002d0: 7235 41aa 449c f029 86d8 b327 2a43 a129
000002e0: f49a 0b2b c6b9 a12a 4dfc 0d2a 57bf a1a8
000002f0: a851 dfa7 4232 8da9 e4c8 622a 8d55 4729
00000300: 1ad3 1721 107a 1d23 a73d 2b27 beee 7e22
00000310: f6c4 c325 db3a ca26 85e1 4920 f269 4627
00000320: 49ae 9219 e19f de24 3f30 af26 9a69 6723
00000330: 9193 b023 6cd4 ec1d 65b3 5c21 b9c4 8824
00000340: 5518 8810 72f0 7290 6fc7 0e12 a99a 470e
00000350: 63e1 a512 dc82 c012 f2a9 ec0c 8bd6 220e
00000360: db4c 2d95 475c 2e18 bfd0 b112 1cba bd95
00000370: f563 a112 d6bb d792 271b 0216 3c6e 2e19
00000380: be51 629b 02f9 6d94 f9ec 919b b2fe 3a9f
00000390: e727 f1a1 c38b 0298 5761 6b96 7b53 7520
000003a0: e4dd 64a1 0860 bba3 b9f0 23a1 f898 82a4
000003b0: f09d a29f b08c ce1f 549d 3c9f ed8a 26a2
000003c0: fd79 d2b2 4d0e d0b2 6ebe b4b0 b0c7 6031
000003d0: fcbd ec32 ec2f b133 fb94 6a33 2dbf 7033
000003e0: ec3f 49b3 73cf 36b3 61f1 36b3 cd01 96b3
000003f0: 3436 0ab4 1a5d 5bb4 11f9 59b4 f2e1 6bb4
4.1152056e-08 7.32403e-09 1.5186272e-09 1.6687721e-09 1.4671652e-08 4.4770188e-09 8.3402485e-10 8.1319096e-10
1.3652176e-08 4.7766624e-10 1.970652e-09 1.2458762e-10 7.231058e-09 1.7911759e-09 2.7418134e-09 7.618031e-10
-1.4562826e-07 6.254857e-08 8.710574e-08 8.233995e-09 6.812035e-09 -2.4761757e-08 2.5655713e-09 1.739966e-08
-3.8517726e-08 -2.6925104e-09 2.2358115e-11 9.947039e-10 1.6552844e-08 1.8981366e-08 1.0876991e-08 8.950231e-09
-5.4352085e-08 -5.5933327e-08 -6.270087e-08 -3.1144705e-08 -5.1535938e-08 -5.8853715e-08 -5.907593e-08 -5.5785314e-08
-5.3507385e-08 -5.5399177e-08 -5.8912875e-08 -5.7720825e-08 -4.426807e-08 -6.351262e-08 -4.555505e-08 -3.7582453e-08
-1.918279e-06 -1.7910022e-06 -1.0946768e-06 3.0159475e-07 -2.097871e-06 -1.3456561e-06 -4.933748e-07 -6.612611e-07
-2.1680207e-06 -1.2138023e-06 -6.6170276e-07 -9.582798e-07 -1.6416672e-06 -1.8995275e-06 -1.3383606e-06 -1.0595014e-06
-4.8886844e-26 4.2300025e-21 -4.708637e-23 4.942775e-24 1.868182e-27 -1.4681906e-22 -3.6646275e-26 5.1032457e-24
-6.087374e-22 -7.2096964e-23 -8.495277e-22 -1.3438126e-25 -1.8477446e-25 -1.8824855e-25 -2.6026672e-26 -5.797183e-26
-4.6358495e-19 5.040885e-18 5.2406028e-18 7.600113e-18 -2.932006e-17 -2.109978e-18 2.6333187e-18 4.4220658e-18
-4.7267887e-19 3.6668997e-20 1.4521828e-20 4.66593e-20 2.4437108e-21 -3.0008028e-17 -5.748153e-17 -6.5463805e-21
-1.09646464e-07 -1.01934475e-07 -1.0042637e-07 -9.326958e-08 -1.0036239e-07 -8.2367464e-08 -8.407891e-08 -1.0283205e-07
-1.3476027e-07 -1.4075111e-07 -1.4451476e-07 -1.6049766e-07 -1.7577986e-07 -1.6619215e-07 -1.6175925e-07 -1.5612409e-07
-2.6048528e-09 -2.6054554e-09 -2.2358058e-09 -1.5234803e-09 -2.0550595e-09 -2.2568816e-09 -2.0098134e-09 -2.2140063e-09
-2.4634141e-09 -2.5940143e-09 -2.3795712e-09 -2.4589233e-09 -3.518651e-09 -2.331333e-09 -2.0375235e-09 -2.2910078e-09
0.0015407624 0.0014615019 0.0013167922 0.0015799154 0.0007455279 0.0010107269 0.00158304 0.0017174808
0.00054871285 0.0006103611 0.0013159656 0.0012635735 0.0011476516 0.0010261044 0.0012838725 0.0016389829
4.792158e-16 -1.1802661e-17 -2.5809883e-17 -7.2342066e-16 7.33281e-16 3.0690873e-15 -3.0923793e-17 3.5471722e-15
-2.3111926e-17 5.727626e-15 2.780366e-15 4.4019316e-17 -1.6376076e-16 1.9071972e-15 3.5664818e-15 2.2674396e-14
-0.017021574 -0.01302704 -0.01040991 -0.021083102 -0.012187292 -0.011172937 -0.010562161 -0.009136186
0.00750822 0.018357815 0.006528787 0.0035212333 0.029114412 0.03679059 0.022467887 0.024481278
-3.6697696e-14 1.0930338e-15 1.0096495e-13 3.6519466e-14 -1.7160386e-13 1.0685249e-13 4.9917236e-15 7.1614874e-14
4.959776e-13 2.872825e-13 1.261085e-13 -1.7957571e-14 -6.1983466e-15 -6.270376e-14 2.014253e-13 4.426108e-14
5.144018e-19 8.536835e-18 2.376444e-15 3.4549808e-18 3.3960574e-16 1.4032518e-15 1.709998e-19 2.7535453e-15
1.516644e-23 9.6548e-17 1.2156141e-15 1.2544897e-17 1.9144455e-17 6.268832e-21 7.4776326e-19 5.931386e-17
5.368003e-29 -4.7911317e-29 4.505312e-28 2.460311e-30 1.0468526e-27 1.2149163e-27 3.646384e-31 2.007134e-30
-3.49977e-26 2.2535561e-24 1.122173e-27 -7.663012e-26 1.018517e-27 -1.3614713e-27 1.0509884e-25 9.017851e-24
-1.8720694e-22 -1.201455e-26 -2.4141378e-22 -3.959771e-20 -1.6341357e-18 -1.6872668e-24 -1.9013864e-25 2.0779929e-19
-7.7543075e-19 -2.0315251e-17 -5.554514e-19 -5.663765e-17 -6.8870954e-20 8.747714e-20 -3.9940687e-20 -2.2570742e-18
-2.4502691e-08 -2.422089e-08 -1.3150847e-09 3.27098e-09 2.756041e-08 8.250922e-08 5.4617868e-08 5.6053228e-08
-4.6857096e-08 -4.256385e-08 -4.259471e-08 -6.985247e-08 -1.287197e-07 -2.0429835e-07 -2.030031e-07 -2.1968279e-07

fc_layers.0.bias f4 [100]
00000000: 2b3d 8cbc c32a c3bc 44f8 d4bb d567 80ba
00000010: f8dd 02bc d62b c43a 634b cbbb 0fcc b33c
00000020: 7e44 97bc c402 5b3c f8d9 b0bc 71af 023d
00000030: b2e6 b6bc 7a54 0b3b 9ef6 083c a2c1 a8bb
00000040: 2539 c0bc 2d47 90b8 f6a3 0abc 5ec7 ac3b
00000050: b4e1 19bc ad65 8d3b f421 b5bb 021a 64ba
00000060: f9aa 7d3b 3511 e6bb 192a 25bc 239f 703b
00000070: 25a5 9dbc f58e 7f3c c880 f23b 6a1f 3c3c
00000080: 55dc 2fbc b583 0b3d 91c2 363c a604 b7ba
00000090: 98eb aebc 620c f33b 96ca 1b3c 1905 47bb
000000a0: 2fd2 e4bb e80c 91b8 e25e 4c3c 6cbd 813b
000000b0: 3226 27bd c050 18bc df5c b73b 8bd9 c63c
000000c0: eb12 94bc 00d2 5dbb 3a98 76ba 684f c7ba
000000d0: a41a 7d3c b030 8d3c 0ad0 93bb 7875 3abb
000000e0: 01ba 6c3c a82e 8bbb 8b45 723c 7b67 f1bc
000000f0: 7b46 59bc 63b2 bf3a 667b 7b3c a4db 4d3c
00000100: 1433 cdba a815 0d3c 3492 223b f71c 23bc
00000110: 8c40 67bc 2f24 1ebc 28ae 7c3c 1fde 9fbb
00000120: 4c14 a4bb 50b0 8e3c 5c45 0abc 23eb d0bc
00000130: e78e 3c3c b083 8fbc 1e48 6fbb 1e25 96bb
00000140: bbdd a6bc 9594 193c ae7d b53c b843 523c
00000150: 5fa6 df3a dfd1 85bc c09e 7e38 3af5 63bc
00000160: 12cb 2f3c 737b b5bc 458c 9d3c ee62 c83c
00000170: 51a0 b23b 3a29 393b f5d5 e0bb d31f 8f3c
00000180: 06e9 ad3c d89c 61ba fe77 3ebb bb2a cd3c
-0.01711901 -0.023824101 -0.006499322 -0.0009796569 -0.007987492 0.0014966677 -0.006204055 0.021947889
-0.018465277 0.013367359 -0.02158831 0.031905595 -0.022326801 0.0021260069 0.008359579 -0.005150036
-0.023464749 -6.8797126e-05 -0.008461943 0.00527279 -0.009392191 0.004315099 -0.005527729 -0.0008701385
0.0038706644 -0.007021094 -0.010080838 0.0036715947 -0.019243786 0.015598048 0.007400606 0.011482099
-0.010733684 0.034061152 0.011154787 -0.0013963177 -0.021352574 0.0074172476 0.0095087495 -0.0030368029
-0.0069830636 -6.916543e-05 0.012473794 0.0039593484 -0.04080791 -0.009296596 0.005595788 0.024273654
-0.018075427 -0.0033847094 -0.0009406839 -0.001520616 0.015448246 0.01723513 -0.004510884 -0.0028451364
0.014448644 -0.004247505 0.014787088 -0.029468289 -0.013261433 0.0014625307 0.015349245 0.012564573
-0.0015655481 0.00861112 0.0024806382 -0.009955636 -0.01411451 -0.0096521815 0.015422381 -0.004878774
-0.0050073024 0.017418057 -0.008439388 -0.025502747 0.01150868 -0.017518848 -0.003651149 -0.0045820614
-0.020369401 0.009373804 0.022154655 0.012833528 0.0017063132 -0.016335426 6.0706167e-05 -0.013913447
0.010729568 -0.022153592 0.019231925 0.024461236 0.00545124 0.0028253333 -0.006861443 0.01747123
0.021229278 -0.00086064404 -0.002906322 0.02504479

fc_layers.1.weight f4 [15, 100]
00000000: b24a efbc 85f1 9a3c 7c32 62bd 6343 a63c
00000010: 1d04 72bd e5dd 43bc 4efc ac3d 082f 9fbd
00000020: 1047 2ebd 80f8 fa3d 8f1b eb3c acc6 f5bc
00000030: 5f68 c43c c02d 2ebd 8bb3 9cbd 943f 00bd
00000040: 0b3f ca3d 658b b0bd 37fa 8b3d c667 6a3c
00000050: b4df c53d 9d9d d23c 96a3 e5bd 306a 813d
00000060: 546a 583b c256 7b3c 8879 b43d caa2 2d3c
00000070: d034 5cbd 8e36 a53b b9ce 24bc 1e1e 8a3d
00000080: 782f b6ba eac5 003d 31b6 30bd 65de d3bd
00000090: d47b ecbb 736c 023d 0d5a 073d 2fff 92bd
000000a0: 536c 21bd 83eb dc3d ba7c 81bc 0206 a7bd
000000b0: 8917 a5bd 50e5 86bc c58f 113d e31e 22bd
000000c0: b68a 64bd e514 8d3b 0e49 483d 1748 24bd
000000d0: 5371 febc 7f92 4c3d 0cd3 08bd c29d 11bc
000000e0: 23bf 3c3d 7654 86bd d6f5 743d 1c1f b9bd
000000f0: 093b 323d f0a6 323d 43de e3bc 5634 83bd
00000100: a53b 253d a1fd 26bd 6c8b a83c 4951 f63d
00000110: dfd7 0f3d b0ed a73d 5321 843b 3a81 913d
00000120: a05a 11bd 08b2 88bd 52c6 7a3c b56f c0bc
00000130: 33e5 643d b665 b8bc 66b9 98bd 78bc 073b
00000140: 2c81 4dbc c8b4 b93c 5d2f 52bd 2250 b0bd
00000150: 4369 243d 79c2 0e3d cc6b adbc 6e94 e9bd
00000160: c3ef 693b 6344 a6bd 65d5 9abd 2d72 a73d
00000170: 1449 c43d 9285 393d d045 833c d62f 1d3d
00000180: 422b 88bd f085 cdbc d44f 90bd 7f05 32bd
00000190: 28e4 f4bc cb2f 243b 42c4 7ebc 1a64 783b
000001a0: 39e8 073d 1a15 4d3d 7392 b3bd 7495 8e3d
000001b0: a903 ba3d c509 b5bd 4cd3 eb3d 53b2 8e3d
000001c0: 0121 d6bd 4113 de3d 6143 b2bd 5568 983d
000001d0: 2ce0 833b 9ce5 2b3c 6dd2 873d 1c6a ccbb
000001e0: 163c 0b3c 9a17 603d 9402 963c f8d5 593d
000001f0: 1ad2 963c 40bd 643d 4392 a53b 33c5 a63c
00000200: b3dc 1d3c 8656 f4bc dd50 9f3b 2714 e33d
00000210: b022 973c e68c 0ebd 7975 013d c3c2 debb
00000220: b226 1fbe 29d5 423c bb06 e3bb f832 01ba
00000230: 52f3 333d 7d8d f2bd f046 9bbd 7861 0dbe
00000240: 15db a13d b924 0b3d 66bc aa3d 4fc3 163d
00000250: 29c8 6d3c 4c14 443d 873a b63d f9b8 b33c
00000260: 8f9e 943d a4db aabd 5b42 993d ef15 61bc
00000270: b1a5 7abb 2d1d c13d 7923 bf3d 728f 993d
00000280: cff1 47bd 0e70 9a3c 1b34 813d ea0e 61bd
00000290: 71fc 0e3e 228f 34bc 8572 8dbc e3ec d73d
000002a0: 0b0f d4bd 6c28 acbb 9228 e8bd cbcd aa3c
000002b0: dcce cf3d 489f c73d 3bc0 8a3d 66d9 42bb
000002c0: c650 253d 8ab1 47bd 3538 023e d5b7 d83d
000002d0: 0c0f 76bd b022 0cbe 05a5 7d3d 0f34 0d3c
000002e0: 5dc7 3d3b c89f 5c3d cd02 dabc ea96 babd
000002f0: 4703 92bd bcc4 4dbd 2ea2 e6bc cf9e 6ebd
00000300: 1215 88bd a4ad c6bc 6661 ebbc 71d7 a0bc
00000310: 3efb 39bd 5c5a 133c 9903 adbc b8bb f93a
00000320: 6740 d3bd 9a70 56bc a115 413b 5c83 9e3c
00000330: 8c7d 51bd 7455 113c 0cbe 05be 9a65 1c3d
00000340: 7f56 adbd 83d2 bdbb 750b 7c3c 8cb2 be3b
00000350: 216f 37bd 8d4a 07bd 81f0 b3bd 6808 273d
00000360: 4877 643d 5272 803d e958 df3c e6be b43c
00000370: dcde 9ebd 3e86 343d 6e1f 9c3d c37d ccbc
00000380: 5cf8 b93c 7fe0 673c 205e a0bd 8b5e ccbb
00000390: 9cf3 8dbd d3e2 613c e53e 153d 8459 80bd
000003a0: 810d d23c f8b7 8f3d 28fb 2f3d e32b 943d
000003b0: eea3 6bbd fde3 01bd 56ac 0d3c 5c2a 0ebd
000003c0: b706 a2bb 1e75 15be 4a93 c73d c402 853d
000003d0: 3968 e8bd c3c0 d2bc a1ab f7bc c401 ca3d
000003e0: 4b2a f83c 27cb eebc d33b dfbd b817 99bd
000003f0: 807d f93d 0433 e13c 6f19 733d fc50 b3bc
-0.029210422 0.018913994 -0.055223927 0.020295804 -0.059085954 -0.011954759 0.08446561 -0.077726424
-0.04254824 0.12254429 0.028699664 -0.03000196 0.02397555 -0.0425241 -0.076514326 -0.031310633
0.09875306 -0.086203374 0.06834834 0.014306968 0.096618086 0.025709921 -0.11212842 0.06319082
0.003302236 0.015340509 0.08812243 0.010597894 -0.053761303 0.005041904 -0.010059052 0.06744026
-0.0013899645 0.031438746 -0.0431425 -0.10345153 -0.00721691 0.031841706 0.033044863 -0.07177579
-0.039409947 0.10787108 -0.015806545 -0.08155443 -0.080611296 -0.016466767 0.0355375 -0.039580237
-0.055796348 0.0043054693 0.048897795 -0.040107813 -0.031059897 0.049944397 -0.033404395 -0.00888771
0.04608072 -0.065590784 0.05980476 -0.09039137 0.04351333 0.043616235 -0.027815944 -0.06406467
0.040340085 -0.040769223 0.020574294 0.12027223 0.03511798 0.08199632 0.004032293 0.07104726
-0.035486817 -0.06674582 0.015306072 -0.023490766 0.055882644 -0.022509437 -0.07457237 0.0020711701
-0.012543004 0.022669211 -0.0513147 -0.08609034 0.040139448 0.034853432 -0.021169566 -0.11405264
0.0035695888 -0.081185125 -0.07560233 0.08176074 0.09584251 0.0452934 0.0160245 0.038375698
-0.06648876 -0.02508828 -0.07046476 -0.043462273 -0.02989395 0.00250529 -0.015549721 0.0037901462
0.03318045 0.050068952 -0.08768167 0.069621 0.09082729 -0.08839754 0.11514911 0.069676064
-0.10455514 0.10843516 -0.08704258 0.07441775 0.004024526 0.010491755 0.066319324 -0.006238235
0.008498212 0.05471001 0.018311776 0.053182572 0.018410731 0.055844545 0.005052836 0.020357704
0.009635138 -0.029826414 0.0048619346 0.11087828 0.018449157 -0.03480234 0.03160617 -0.0067981197
-0.15542105 0.011891642 -0.0069282926 -0.00049285544 0.04393322 -0.11843393 -0.0758189 -0.13806713
0.07903115 0.03397057 0.083367154 0.036807355 0.014513054 0.04787092 0.08897882 0.021938788
0.07256805 -0.083426744 0.074833594 -0.0137381395 -0.0038245732 0.09429393 0.09332938 0.07498063
-0.04881459 0.01885226 0.063087665 -0.054945864 0.13963486 -0.011020454 -0.017266521 0.105432294
-0.10354432 -0.005253842 -0.11335863 0.020850083 0.10146877 0.09747177 0.06774946 -0.002973163
0.040360235 -0.0487533 0.12716754 0.10581938 -0.060072944 -0.13685107 0.061924953 0.008618369
0.002895794 0.053863317 -0.026612664 -0.09110816 -0.07129531 -0.05023645 -0.028153505 -0.05825692
-0.06644644 -0.02425272 -0.028732967 -0.01963398 -0.04540562 0.008993711 -0.02111988 0.0019053137
-0.10315018 -0.01308837 0.0029462355 0.019349746 -0.05114512 0.008870471 -0.13060778 0.038182832
-0.084637634 -0.005792917 0.015383591 0.0058196243 -0.044783715 -0.03303008 -0.08786107 0.0407795
0.055777818 0.06271805 0.027264075 0.022063684 -0.07757351 0.044073336 0.07623182 -0.024962312
0.022701435 0.014152645 -0.07830453 -0.0062368563 -0.069312304 0.013786989 0.036436934 -0.06267074
0.025641205 0.07017511 0.04296413 0.07234933 -0.057529382 -0.031711567 0.008647045 -0.034708366
-0.004944648 -0.14595458 0.0974489 0.06494668 -0.11348004 -0.025726682 -0.030233206 0.09863618
0.030293604 -0.029149605 -0.109000824 -0.07475227 0.1218214 0.027490146 0.059350427 -0.021889202

fc_layers.1.bias f4 [15]
00000000: fe46 fd3c a8bf 8cbd c214 b43d 0358 d93c
00000010: 329e eb3c 1a1e 5e3d 586e 2dbc 567d d43c
00000020: 6e15 51bd 7504 a03c 07e0 eb3d 4e9d a1bc
00000030: 5a37 0bbd b4c2 8dbd 0d82 3cbd
0.03091764 -0.06872493 0.08793022 0.026531225 0.028761957 0.054227926 -0.01058539 0.025938671
-0.051045828 0.019533375 0.11517339 -0.019728329 -0.033988334 -0.06921902 -0.046022464
